{"format": "graph-model", "generatedBy": "2.18.0", "convertedBy": "TensorFlow.js Converter v4.22.0", "signature": {"inputs": {"keras_tensor_783": {"name": "keras_tensor_783:0", "dtype": "DT_FLOAT", "tensorShape": {"dim": [{"size": "-1"}, {"size": "128"}, {"size": "128"}, {"size": "3"}]}}}, "outputs": {"output_0": {"name": "Identity:0", "dtype": "DT_FLOAT", "tensorShape": {"dim": [{"size": "-1"}, {"size": "2"}]}}}}, "modelTopology": {"node": [{"name": "StatefulPartitionedCall/sequential_2_1/nasnet_mobile_1/separable_conv_1_normal_left1_12_1/separable_conv2d/ReadVariableOp", "op": "Const", "attr": {"value": {"tensor": {"dtype": "DT_FLOAT", "tensorShape": {"dim": [{"size": "5"}, {"size": "5"}, {"size": "176"}, {"size": "1"}]}}}, "dtype": {"type": "DT_FLOAT"}}}, {"name": "StatefulPartitionedCall/sequential_2_1/nasnet_mobile_1/separable_conv_1_normal_left1_12_1/separable_conv2d/merged_input", "op": "Const", "attr": {"value": {"tensor": {"dtype": "DT_FLOAT", "tensorShape": {"dim": [{"size": "1"}, {"size": "1"}, {"size": "176"}, {"size": "176"}]}}}, "dtype": {"type": "DT_FLOAT"}}}, {"name": "StatefulPartitionedCall/sequential_2_1/nasnet_mobile_1/separable_conv_1_bn_normal_left1_12_1/batchnorm/sub", "op": "Const", "attr": {"value": {"tensor": {"dtype": "DT_FLOAT", "tensorShape": {"dim": [{"size": "176"}]}}}, "dtype": {"type": "DT_FLOAT"}}}, {"name": "StatefulPartitionedCall/sequential_2_1/nasnet_mobile_1/separable_conv_2_normal_left1_12_1/separable_conv2d/ReadVariableOp", "op": "Const", "attr": {"value": {"tensor": {"dtype": "DT_FLOAT", "tensorShape": {"dim": [{"size": "5"}, {"size": "5"}, {"size": "176"}, {"size": "1"}]}}}, "dtype": {"type": "DT_FLOAT"}}}, {"name": "StatefulPartitionedCall/sequential_2_1/nasnet_mobile_1/separable_conv_2_normal_left1_12_1/separable_conv2d/merged_input", "op": "Const", "attr": {"value": {"tensor": {"dtype": "DT_FLOAT", "tensorShape": {"dim": [{"size": "1"}, {"size": "1"}, {"size": "176"}, {"size": "176"}]}}}, "dtype": {"type": "DT_FLOAT"}}}, {"name": "StatefulPartitionedCall/sequential_2_1/nasnet_mobile_1/separable_conv_2_bn_normal_left1_12_1/batchnorm/sub", "op": "Const", "attr": {"value": {"tensor": {"dtype": "DT_FLOAT", "tensorShape": {"dim": [{"size": "176"}]}}}, "dtype": {"type": "DT_FLOAT"}}}, {"name": "StatefulPartitionedCall/sequential_2_1/nasnet_mobile_1/separable_conv_1_normal_right1_12_1/separable_conv2d/ReadVariableOp", "op": "Const", "attr": {"value": {"tensor": {"dtype": "DT_FLOAT", "tensorShape": {"dim": [{"size": "3"}, {"size": "3"}, {"size": "176"}, {"size": "1"}]}}}, "dtype": {"type": "DT_FLOAT"}}}, {"name": "StatefulPartitionedCall/sequential_2_1/nasnet_mobile_1/separable_conv_1_normal_right1_12_1/separable_conv2d/merged_input", "op": "Const", "attr": {"value": {"tensor": {"dtype": "DT_FLOAT", "tensorShape": {"dim": [{"size": "1"}, {"size": "1"}, {"size": "176"}, {"size": "176"}]}}}, "dtype": {"type": "DT_FLOAT"}}}, {"name": "StatefulPartitionedCall/sequential_2_1/nasnet_mobile_1/separable_conv_1_bn_normal_right1_12_1/batchnorm/sub", "op": "Const", "attr": {"value": {"tensor": {"dtype": "DT_FLOAT", "tensorShape": {"dim": [{"size": "176"}]}}}, "dtype": {"type": "DT_FLOAT"}}}, {"name": "StatefulPartitionedCall/sequential_2_1/nasnet_mobile_1/separable_conv_2_normal_right1_12_1/separable_conv2d/ReadVariableOp", "op": "Const", "attr": {"value": {"tensor": {"dtype": "DT_FLOAT", "tensorShape": {"dim": [{"size": "3"}, {"size": "3"}, {"size": "176"}, {"size": "1"}]}}}, "dtype": {"type": "DT_FLOAT"}}}, {"name": "StatefulPartitionedCall/sequential_2_1/nasnet_mobile_1/separable_conv_2_normal_right1_12_1/separable_conv2d/merged_input", "op": "Const", "attr": {"value": {"tensor": {"dtype": "DT_FLOAT", "tensorShape": {"dim": [{"size": "1"}, {"size": "1"}, {"size": "176"}, {"size": "176"}]}}}, "dtype": {"type": "DT_FLOAT"}}}, {"name": "StatefulPartitionedCall/sequential_2_1/nasnet_mobile_1/separable_conv_2_bn_normal_right1_12_1/batchnorm/sub", "op": "Const", "attr": {"value": {"tensor": {"dtype": "DT_FLOAT", "tensorShape": {"dim": [{"size": "176"}]}}}, "dtype": {"type": "DT_FLOAT"}}}, {"name": "StatefulPartitionedCall/sequential_2_1/nasnet_mobile_1/separable_conv_1_normal_left2_12_1/separable_conv2d/ReadVariableOp", "op": "Const", "attr": {"value": {"tensor": {"dtype": "DT_FLOAT", "tensorShape": {"dim": [{"size": "5"}, {"size": "5"}, {"size": "176"}, {"size": "1"}]}}}, "dtype": {"type": "DT_FLOAT"}}}, {"name": "StatefulPartitionedCall/sequential_2_1/nasnet_mobile_1/separable_conv_1_normal_left2_12_1/separable_conv2d/merged_input", "op": "Const", "attr": {"value": {"tensor": {"dtype": "DT_FLOAT", "tensorShape": {"dim": [{"size": "1"}, {"size": "1"}, {"size": "176"}, {"size": "176"}]}}}, "dtype": {"type": "DT_FLOAT"}}}, {"name": "StatefulPartitionedCall/sequential_2_1/nasnet_mobile_1/separable_conv_1_bn_normal_left2_12_1/batchnorm/sub", "op": "Const", "attr": {"value": {"tensor": {"dtype": "DT_FLOAT", "tensorShape": {"dim": [{"size": "176"}]}}}, "dtype": {"type": "DT_FLOAT"}}}, {"name": "StatefulPartitionedCall/sequential_2_1/nasnet_mobile_1/separable_conv_2_normal_left2_12_1/separable_conv2d/ReadVariableOp", "op": "Const", "attr": {"value": {"tensor": {"dtype": "DT_FLOAT", "tensorShape": {"dim": [{"size": "5"}, {"size": "5"}, {"size": "176"}, {"size": "1"}]}}}, "dtype": {"type": "DT_FLOAT"}}}, {"name": "StatefulPartitionedCall/sequential_2_1/nasnet_mobile_1/separable_conv_2_normal_left2_12_1/separable_conv2d/merged_input", "op": "Const", "attr": {"value": {"tensor": {"dtype": "DT_FLOAT", "tensorShape": {"dim": [{"size": "1"}, {"size": "1"}, {"size": "176"}, {"size": "176"}]}}}, "dtype": {"type": "DT_FLOAT"}}}, {"name": "StatefulPartitionedCall/sequential_2_1/nasnet_mobile_1/separable_conv_2_bn_normal_left2_12_1/batchnorm/sub", "op": "Const", "attr": {"value": {"tensor": {"dtype": "DT_FLOAT", "tensorShape": {"dim": [{"size": "176"}]}}}, "dtype": {"type": "DT_FLOAT"}}}, {"name": "StatefulPartitionedCall/sequential_2_1/nasnet_mobile_1/separable_conv_1_normal_right2_12_1/separable_conv2d/ReadVariableOp", "op": "Const", "attr": {"value": {"tensor": {"dtype": "DT_FLOAT", "tensorShape": {"dim": [{"size": "3"}, {"size": "3"}, {"size": "176"}, {"size": "1"}]}}}, "dtype": {"type": "DT_FLOAT"}}}, {"name": "StatefulPartitionedCall/sequential_2_1/nasnet_mobile_1/separable_conv_1_normal_right2_12_1/separable_conv2d/merged_input", "op": "Const", "attr": {"value": {"tensor": {"dtype": "DT_FLOAT", "tensorShape": {"dim": [{"size": "1"}, {"size": "1"}, {"size": "176"}, {"size": "176"}]}}}, "dtype": {"type": "DT_FLOAT"}}}, {"name": "StatefulPartitionedCall/sequential_2_1/nasnet_mobile_1/separable_conv_1_bn_normal_right2_12_1/batchnorm/sub", "op": "Const", "attr": {"value": {"tensor": {"dtype": "DT_FLOAT", "tensorShape": {"dim": [{"size": "176"}]}}}, "dtype": {"type": "DT_FLOAT"}}}, {"name": "StatefulPartitionedCall/sequential_2_1/nasnet_mobile_1/separable_conv_2_normal_right2_12_1/separable_conv2d/ReadVariableOp", "op": "Const", "attr": {"value": {"tensor": {"dtype": "DT_FLOAT", "tensorShape": {"dim": [{"size": "3"}, {"size": "3"}, {"size": "176"}, {"size": "1"}]}}}, "dtype": {"type": "DT_FLOAT"}}}, {"name": "StatefulPartitionedCall/sequential_2_1/nasnet_mobile_1/separable_conv_2_normal_right2_12_1/separable_conv2d/merged_input", "op": "Const", "attr": {"value": {"tensor": {"dtype": "DT_FLOAT", "tensorShape": {"dim": [{"size": "1"}, {"size": "1"}, {"size": "176"}, {"size": "176"}]}}}, "dtype": {"type": "DT_FLOAT"}}}, {"name": "StatefulPartitionedCall/sequential_2_1/nasnet_mobile_1/separable_conv_2_bn_normal_right2_12_1/batchnorm/sub", "op": "Const", "attr": {"value": {"tensor": {"dtype": "DT_FLOAT", "tensorShape": {"dim": [{"size": "176"}]}}}, "dtype": {"type": "DT_FLOAT"}}}, {"name": "StatefulPartitionedCall/sequential_2_1/nasnet_mobile_1/adjust_conv_projection_12_1/convolution/merged_input", "op": "Const", "attr": {"value": {"tensor": {"dtype": "DT_FLOAT", "tensorShape": {"dim": [{"size": "1"}, {"size": "1"}, {"size": "1056"}, {"size": "176"}]}}}, "dtype": {"type": "DT_FLOAT"}}}, {"name": "StatefulPartitionedCall/sequential_2_1/nasnet_mobile_1/adjust_bn_12_1/batchnorm/sub", "op": "Const", "attr": {"value": {"tensor": {"dtype": "DT_FLOAT", "tensorShape": {"dim": [{"size": "176"}]}}}, "dtype": {"type": "DT_FLOAT"}}}, {"name": "StatefulPartitionedCall/sequential_2_1/nasnet_mobile_1/separable_conv_1_normal_left5_12_1/separable_conv2d/ReadVariableOp", "op": "Const", "attr": {"value": {"tensor": {"dtype": "DT_FLOAT", "tensorShape": {"dim": [{"size": "3"}, {"size": "3"}, {"size": "176"}, {"size": "1"}]}}}, "dtype": {"type": "DT_FLOAT"}}}, {"name": "StatefulPartitionedCall/sequential_2_1/nasnet_mobile_1/separable_conv_1_normal_left5_12_1/separable_conv2d/merged_input", "op": "Const", "attr": {"value": {"tensor": {"dtype": "DT_FLOAT", "tensorShape": {"dim": [{"size": "1"}, {"size": "1"}, {"size": "176"}, {"size": "176"}]}}}, "dtype": {"type": "DT_FLOAT"}}}, {"name": "StatefulPartitionedCall/sequential_2_1/nasnet_mobile_1/separable_conv_1_bn_normal_left5_12_1/batchnorm/sub", "op": "Const", "attr": {"value": {"tensor": {"dtype": "DT_FLOAT", "tensorShape": {"dim": [{"size": "176"}]}}}, "dtype": {"type": "DT_FLOAT"}}}, {"name": "StatefulPartitionedCall/sequential_2_1/nasnet_mobile_1/separable_conv_2_normal_left5_12_1/separable_conv2d/ReadVariableOp", "op": "Const", "attr": {"value": {"tensor": {"dtype": "DT_FLOAT", "tensorShape": {"dim": [{"size": "3"}, {"size": "3"}, {"size": "176"}, {"size": "1"}]}}}, "dtype": {"type": "DT_FLOAT"}}}, {"name": "StatefulPartitionedCall/sequential_2_1/nasnet_mobile_1/separable_conv_2_normal_left5_12_1/separable_conv2d/merged_input", "op": "Const", "attr": {"value": {"tensor": {"dtype": "DT_FLOAT", "tensorShape": {"dim": [{"size": "1"}, {"size": "1"}, {"size": "176"}, {"size": "176"}]}}}, "dtype": {"type": "DT_FLOAT"}}}, {"name": "StatefulPartitionedCall/sequential_2_1/nasnet_mobile_1/separable_conv_2_bn_normal_left5_12_1/batchnorm/sub", "op": "Const", "attr": {"value": {"tensor": {"dtype": "DT_FLOAT", "tensorShape": {"dim": [{"size": "176"}]}}}, "dtype": {"type": "DT_FLOAT"}}}, {"name": "StatefulPartitionedCall/sequential_2_1/nasnet_mobile_1/separable_conv_1_normal_left1_11_1/separable_conv2d/ReadVariableOp", "op": "Const", "attr": {"value": {"tensor": {"dtype": "DT_FLOAT", "tensorShape": {"dim": [{"size": "5"}, {"size": "5"}, {"size": "176"}, {"size": "1"}]}}}, "dtype": {"type": "DT_FLOAT"}}}, {"name": "StatefulPartitionedCall/sequential_2_1/nasnet_mobile_1/separable_conv_1_normal_left1_11_1/separable_conv2d/merged_input", "op": "Const", "attr": {"value": {"tensor": {"dtype": "DT_FLOAT", "tensorShape": {"dim": [{"size": "1"}, {"size": "1"}, {"size": "176"}, {"size": "176"}]}}}, "dtype": {"type": "DT_FLOAT"}}}, {"name": "StatefulPartitionedCall/sequential_2_1/nasnet_mobile_1/separable_conv_1_bn_normal_left1_11_1/batchnorm/sub", "op": "Const", "attr": {"value": {"tensor": {"dtype": "DT_FLOAT", "tensorShape": {"dim": [{"size": "176"}]}}}, "dtype": {"type": "DT_FLOAT"}}}, {"name": "StatefulPartitionedCall/sequential_2_1/nasnet_mobile_1/separable_conv_2_normal_left1_11_1/separable_conv2d/ReadVariableOp", "op": "Const", "attr": {"value": {"tensor": {"dtype": "DT_FLOAT", "tensorShape": {"dim": [{"size": "5"}, {"size": "5"}, {"size": "176"}, {"size": "1"}]}}}, "dtype": {"type": "DT_FLOAT"}}}, {"name": "StatefulPartitionedCall/sequential_2_1/nasnet_mobile_1/separable_conv_2_normal_left1_11_1/separable_conv2d/merged_input", "op": "Const", "attr": {"value": {"tensor": {"dtype": "DT_FLOAT", "tensorShape": {"dim": [{"size": "1"}, {"size": "1"}, {"size": "176"}, {"size": "176"}]}}}, "dtype": {"type": "DT_FLOAT"}}}, {"name": "StatefulPartitionedCall/sequential_2_1/nasnet_mobile_1/separable_conv_2_bn_normal_left1_11_1/batchnorm/sub", "op": "Const", "attr": {"value": {"tensor": {"dtype": "DT_FLOAT", "tensorShape": {"dim": [{"size": "176"}]}}}, "dtype": {"type": "DT_FLOAT"}}}, {"name": "StatefulPartitionedCall/sequential_2_1/nasnet_mobile_1/separable_conv_1_normal_right1_11_1/separable_conv2d/ReadVariableOp", "op": "Const", "attr": {"value": {"tensor": {"dtype": "DT_FLOAT", "tensorShape": {"dim": [{"size": "3"}, {"size": "3"}, {"size": "176"}, {"size": "1"}]}}}, "dtype": {"type": "DT_FLOAT"}}}, {"name": "StatefulPartitionedCall/sequential_2_1/nasnet_mobile_1/separable_conv_1_normal_right1_11_1/separable_conv2d/merged_input", "op": "Const", "attr": {"value": {"tensor": {"dtype": "DT_FLOAT", "tensorShape": {"dim": [{"size": "1"}, {"size": "1"}, {"size": "176"}, {"size": "176"}]}}}, "dtype": {"type": "DT_FLOAT"}}}, {"name": "StatefulPartitionedCall/sequential_2_1/nasnet_mobile_1/separable_conv_1_bn_normal_right1_11_1/batchnorm/sub", "op": "Const", "attr": {"value": {"tensor": {"dtype": "DT_FLOAT", "tensorShape": {"dim": [{"size": "176"}]}}}, "dtype": {"type": "DT_FLOAT"}}}, {"name": "StatefulPartitionedCall/sequential_2_1/nasnet_mobile_1/separable_conv_2_normal_right1_11_1/separable_conv2d/ReadVariableOp", "op": "Const", "attr": {"value": {"tensor": {"dtype": "DT_FLOAT", "tensorShape": {"dim": [{"size": "3"}, {"size": "3"}, {"size": "176"}, {"size": "1"}]}}}, "dtype": {"type": "DT_FLOAT"}}}, {"name": "StatefulPartitionedCall/sequential_2_1/nasnet_mobile_1/separable_conv_2_normal_right1_11_1/separable_conv2d/merged_input", "op": "Const", "attr": {"value": {"tensor": {"dtype": "DT_FLOAT", "tensorShape": {"dim": [{"size": "1"}, {"size": "1"}, {"size": "176"}, {"size": "176"}]}}}, "dtype": {"type": "DT_FLOAT"}}}, {"name": "StatefulPartitionedCall/sequential_2_1/nasnet_mobile_1/separable_conv_2_bn_normal_right1_11_1/batchnorm/sub", "op": "Const", "attr": {"value": {"tensor": {"dtype": "DT_FLOAT", "tensorShape": {"dim": [{"size": "176"}]}}}, "dtype": {"type": "DT_FLOAT"}}}, {"name": "StatefulPartitionedCall/sequential_2_1/nasnet_mobile_1/separable_conv_1_normal_left2_11_1/separable_conv2d/ReadVariableOp", "op": "Const", "attr": {"value": {"tensor": {"dtype": "DT_FLOAT", "tensorShape": {"dim": [{"size": "5"}, {"size": "5"}, {"size": "176"}, {"size": "1"}]}}}, "dtype": {"type": "DT_FLOAT"}}}, {"name": "StatefulPartitionedCall/sequential_2_1/nasnet_mobile_1/separable_conv_1_normal_left2_11_1/separable_conv2d/merged_input", "op": "Const", "attr": {"value": {"tensor": {"dtype": "DT_FLOAT", "tensorShape": {"dim": [{"size": "1"}, {"size": "1"}, {"size": "176"}, {"size": "176"}]}}}, "dtype": {"type": "DT_FLOAT"}}}, {"name": "StatefulPartitionedCall/sequential_2_1/nasnet_mobile_1/separable_conv_1_bn_normal_left2_11_1/batchnorm/sub", "op": "Const", "attr": {"value": {"tensor": {"dtype": "DT_FLOAT", "tensorShape": {"dim": [{"size": "176"}]}}}, "dtype": {"type": "DT_FLOAT"}}}, {"name": "StatefulPartitionedCall/sequential_2_1/nasnet_mobile_1/separable_conv_2_normal_left2_11_1/separable_conv2d/ReadVariableOp", "op": "Const", "attr": {"value": {"tensor": {"dtype": "DT_FLOAT", "tensorShape": {"dim": [{"size": "5"}, {"size": "5"}, {"size": "176"}, {"size": "1"}]}}}, "dtype": {"type": "DT_FLOAT"}}}, {"name": "StatefulPartitionedCall/sequential_2_1/nasnet_mobile_1/separable_conv_2_normal_left2_11_1/separable_conv2d/merged_input", "op": "Const", "attr": {"value": {"tensor": {"dtype": "DT_FLOAT", "tensorShape": {"dim": [{"size": "1"}, {"size": "1"}, {"size": "176"}, {"size": "176"}]}}}, "dtype": {"type": "DT_FLOAT"}}}, {"name": "StatefulPartitionedCall/sequential_2_1/nasnet_mobile_1/separable_conv_2_bn_normal_left2_11_1/batchnorm/sub", "op": "Const", "attr": {"value": {"tensor": {"dtype": "DT_FLOAT", "tensorShape": {"dim": [{"size": "176"}]}}}, "dtype": {"type": "DT_FLOAT"}}}, {"name": "StatefulPartitionedCall/sequential_2_1/nasnet_mobile_1/separable_conv_1_normal_right2_11_1/separable_conv2d/ReadVariableOp", "op": "Const", "attr": {"value": {"tensor": {"dtype": "DT_FLOAT", "tensorShape": {"dim": [{"size": "3"}, {"size": "3"}, {"size": "176"}, {"size": "1"}]}}}, "dtype": {"type": "DT_FLOAT"}}}, {"name": "StatefulPartitionedCall/sequential_2_1/nasnet_mobile_1/separable_conv_1_normal_right2_11_1/separable_conv2d/merged_input", "op": "Const", "attr": {"value": {"tensor": {"dtype": "DT_FLOAT", "tensorShape": {"dim": [{"size": "1"}, {"size": "1"}, {"size": "176"}, {"size": "176"}]}}}, "dtype": {"type": "DT_FLOAT"}}}, {"name": "StatefulPartitionedCall/sequential_2_1/nasnet_mobile_1/separable_conv_1_bn_normal_right2_11_1/batchnorm/sub", "op": "Const", "attr": {"value": {"tensor": {"dtype": "DT_FLOAT", "tensorShape": {"dim": [{"size": "176"}]}}}, "dtype": {"type": "DT_FLOAT"}}}, {"name": "StatefulPartitionedCall/sequential_2_1/nasnet_mobile_1/separable_conv_2_normal_right2_11_1/separable_conv2d/ReadVariableOp", "op": "Const", "attr": {"value": {"tensor": {"dtype": "DT_FLOAT", "tensorShape": {"dim": [{"size": "3"}, {"size": "3"}, {"size": "176"}, {"size": "1"}]}}}, "dtype": {"type": "DT_FLOAT"}}}, {"name": "StatefulPartitionedCall/sequential_2_1/nasnet_mobile_1/separable_conv_2_normal_right2_11_1/separable_conv2d/merged_input", "op": "Const", "attr": {"value": {"tensor": {"dtype": "DT_FLOAT", "tensorShape": {"dim": [{"size": "1"}, {"size": "1"}, {"size": "176"}, {"size": "176"}]}}}, "dtype": {"type": "DT_FLOAT"}}}, {"name": "StatefulPartitionedCall/sequential_2_1/nasnet_mobile_1/separable_conv_2_bn_normal_right2_11_1/batchnorm/sub", "op": "Const", "attr": {"value": {"tensor": {"dtype": "DT_FLOAT", "tensorShape": {"dim": [{"size": "176"}]}}}, "dtype": {"type": "DT_FLOAT"}}}, {"name": "StatefulPartitionedCall/sequential_2_1/nasnet_mobile_1/adjust_conv_projection_11_1/convolution/merged_input", "op": "Const", "attr": {"value": {"tensor": {"dtype": "DT_FLOAT", "tensorShape": {"dim": [{"size": "1"}, {"size": "1"}, {"size": "1056"}, {"size": "176"}]}}}, "dtype": {"type": "DT_FLOAT"}}}, {"name": "StatefulPartitionedCall/sequential_2_1/nasnet_mobile_1/adjust_bn_11_1/batchnorm/sub", "op": "Const", "attr": {"value": {"tensor": {"dtype": "DT_FLOAT", "tensorShape": {"dim": [{"size": "176"}]}}}, "dtype": {"type": "DT_FLOAT"}}}, {"name": "StatefulPartitionedCall/sequential_2_1/nasnet_mobile_1/separable_conv_1_normal_left5_11_1/separable_conv2d/ReadVariableOp", "op": "Const", "attr": {"value": {"tensor": {"dtype": "DT_FLOAT", "tensorShape": {"dim": [{"size": "3"}, {"size": "3"}, {"size": "176"}, {"size": "1"}]}}}, "dtype": {"type": "DT_FLOAT"}}}, {"name": "StatefulPartitionedCall/sequential_2_1/nasnet_mobile_1/separable_conv_1_normal_left5_11_1/separable_conv2d/merged_input", "op": "Const", "attr": {"value": {"tensor": {"dtype": "DT_FLOAT", "tensorShape": {"dim": [{"size": "1"}, {"size": "1"}, {"size": "176"}, {"size": "176"}]}}}, "dtype": {"type": "DT_FLOAT"}}}, {"name": "StatefulPartitionedCall/sequential_2_1/nasnet_mobile_1/separable_conv_1_bn_normal_left5_11_1/batchnorm/sub", "op": "Const", "attr": {"value": {"tensor": {"dtype": "DT_FLOAT", "tensorShape": {"dim": [{"size": "176"}]}}}, "dtype": {"type": "DT_FLOAT"}}}, {"name": "StatefulPartitionedCall/sequential_2_1/nasnet_mobile_1/separable_conv_2_normal_left5_11_1/separable_conv2d/ReadVariableOp", "op": "Const", "attr": {"value": {"tensor": {"dtype": "DT_FLOAT", "tensorShape": {"dim": [{"size": "3"}, {"size": "3"}, {"size": "176"}, {"size": "1"}]}}}, "dtype": {"type": "DT_FLOAT"}}}, {"name": "StatefulPartitionedCall/sequential_2_1/nasnet_mobile_1/separable_conv_2_normal_left5_11_1/separable_conv2d/merged_input", "op": "Const", "attr": {"value": {"tensor": {"dtype": "DT_FLOAT", "tensorShape": {"dim": [{"size": "1"}, {"size": "1"}, {"size": "176"}, {"size": "176"}]}}}, "dtype": {"type": "DT_FLOAT"}}}, {"name": "StatefulPartitionedCall/sequential_2_1/nasnet_mobile_1/separable_conv_2_bn_normal_left5_11_1/batchnorm/sub", "op": "Const", "attr": {"value": {"tensor": {"dtype": "DT_FLOAT", "tensorShape": {"dim": [{"size": "176"}]}}}, "dtype": {"type": "DT_FLOAT"}}}, {"name": "StatefulPartitionedCall/sequential_2_1/nasnet_mobile_1/separable_conv_1_normal_left1_10_1/separable_conv2d/ReadVariableOp", "op": "Const", "attr": {"value": {"tensor": {"dtype": "DT_FLOAT", "tensorShape": {"dim": [{"size": "5"}, {"size": "5"}, {"size": "176"}, {"size": "1"}]}}}, "dtype": {"type": "DT_FLOAT"}}}, {"name": "StatefulPartitionedCall/sequential_2_1/nasnet_mobile_1/separable_conv_1_normal_left1_10_1/separable_conv2d/merged_input", "op": "Const", "attr": {"value": {"tensor": {"dtype": "DT_FLOAT", "tensorShape": {"dim": [{"size": "1"}, {"size": "1"}, {"size": "176"}, {"size": "176"}]}}}, "dtype": {"type": "DT_FLOAT"}}}, {"name": "StatefulPartitionedCall/sequential_2_1/nasnet_mobile_1/separable_conv_1_bn_normal_left1_10_1/batchnorm/sub", "op": "Const", "attr": {"value": {"tensor": {"dtype": "DT_FLOAT", "tensorShape": {"dim": [{"size": "176"}]}}}, "dtype": {"type": "DT_FLOAT"}}}, {"name": "StatefulPartitionedCall/sequential_2_1/nasnet_mobile_1/separable_conv_2_normal_left1_10_1/separable_conv2d/ReadVariableOp", "op": "Const", "attr": {"value": {"tensor": {"dtype": "DT_FLOAT", "tensorShape": {"dim": [{"size": "5"}, {"size": "5"}, {"size": "176"}, {"size": "1"}]}}}, "dtype": {"type": "DT_FLOAT"}}}, {"name": "StatefulPartitionedCall/sequential_2_1/nasnet_mobile_1/separable_conv_2_normal_left1_10_1/separable_conv2d/merged_input", "op": "Const", "attr": {"value": {"tensor": {"dtype": "DT_FLOAT", "tensorShape": {"dim": [{"size": "1"}, {"size": "1"}, {"size": "176"}, {"size": "176"}]}}}, "dtype": {"type": "DT_FLOAT"}}}, {"name": "StatefulPartitionedCall/sequential_2_1/nasnet_mobile_1/separable_conv_2_bn_normal_left1_10_1/batchnorm/sub", "op": "Const", "attr": {"value": {"tensor": {"dtype": "DT_FLOAT", "tensorShape": {"dim": [{"size": "176"}]}}}, "dtype": {"type": "DT_FLOAT"}}}, {"name": "StatefulPartitionedCall/sequential_2_1/nasnet_mobile_1/separable_conv_1_normal_right1_10_1/separable_conv2d/ReadVariableOp", "op": "Const", "attr": {"value": {"tensor": {"dtype": "DT_FLOAT", "tensorShape": {"dim": [{"size": "3"}, {"size": "3"}, {"size": "176"}, {"size": "1"}]}}}, "dtype": {"type": "DT_FLOAT"}}}, {"name": "StatefulPartitionedCall/sequential_2_1/nasnet_mobile_1/separable_conv_1_normal_right1_10_1/separable_conv2d/merged_input", "op": "Const", "attr": {"value": {"tensor": {"dtype": "DT_FLOAT", "tensorShape": {"dim": [{"size": "1"}, {"size": "1"}, {"size": "176"}, {"size": "176"}]}}}, "dtype": {"type": "DT_FLOAT"}}}, {"name": "StatefulPartitionedCall/sequential_2_1/nasnet_mobile_1/separable_conv_1_bn_normal_right1_10_1/batchnorm/sub", "op": "Const", "attr": {"value": {"tensor": {"dtype": "DT_FLOAT", "tensorShape": {"dim": [{"size": "176"}]}}}, "dtype": {"type": "DT_FLOAT"}}}, {"name": "StatefulPartitionedCall/sequential_2_1/nasnet_mobile_1/separable_conv_2_normal_right1_10_1/separable_conv2d/ReadVariableOp", "op": "Const", "attr": {"value": {"tensor": {"dtype": "DT_FLOAT", "tensorShape": {"dim": [{"size": "3"}, {"size": "3"}, {"size": "176"}, {"size": "1"}]}}}, "dtype": {"type": "DT_FLOAT"}}}, {"name": "StatefulPartitionedCall/sequential_2_1/nasnet_mobile_1/separable_conv_2_normal_right1_10_1/separable_conv2d/merged_input", "op": "Const", "attr": {"value": {"tensor": {"dtype": "DT_FLOAT", "tensorShape": {"dim": [{"size": "1"}, {"size": "1"}, {"size": "176"}, {"size": "176"}]}}}, "dtype": {"type": "DT_FLOAT"}}}, {"name": "StatefulPartitionedCall/sequential_2_1/nasnet_mobile_1/separable_conv_2_bn_normal_right1_10_1/batchnorm/sub", "op": "Const", "attr": {"value": {"tensor": {"dtype": "DT_FLOAT", "tensorShape": {"dim": [{"size": "176"}]}}}, "dtype": {"type": "DT_FLOAT"}}}, {"name": "StatefulPartitionedCall/sequential_2_1/nasnet_mobile_1/separable_conv_1_normal_left2_10_1/separable_conv2d/ReadVariableOp", "op": "Const", "attr": {"value": {"tensor": {"dtype": "DT_FLOAT", "tensorShape": {"dim": [{"size": "5"}, {"size": "5"}, {"size": "176"}, {"size": "1"}]}}}, "dtype": {"type": "DT_FLOAT"}}}, {"name": "StatefulPartitionedCall/sequential_2_1/nasnet_mobile_1/separable_conv_1_normal_left2_10_1/separable_conv2d/merged_input", "op": "Const", "attr": {"value": {"tensor": {"dtype": "DT_FLOAT", "tensorShape": {"dim": [{"size": "1"}, {"size": "1"}, {"size": "176"}, {"size": "176"}]}}}, "dtype": {"type": "DT_FLOAT"}}}, {"name": "StatefulPartitionedCall/sequential_2_1/nasnet_mobile_1/separable_conv_1_bn_normal_left2_10_1/batchnorm/sub", "op": "Const", "attr": {"value": {"tensor": {"dtype": "DT_FLOAT", "tensorShape": {"dim": [{"size": "176"}]}}}, "dtype": {"type": "DT_FLOAT"}}}, {"name": "StatefulPartitionedCall/sequential_2_1/nasnet_mobile_1/separable_conv_2_normal_left2_10_1/separable_conv2d/ReadVariableOp", "op": "Const", "attr": {"value": {"tensor": {"dtype": "DT_FLOAT", "tensorShape": {"dim": [{"size": "5"}, {"size": "5"}, {"size": "176"}, {"size": "1"}]}}}, "dtype": {"type": "DT_FLOAT"}}}, {"name": "StatefulPartitionedCall/sequential_2_1/nasnet_mobile_1/separable_conv_2_normal_left2_10_1/separable_conv2d/merged_input", "op": "Const", "attr": {"value": {"tensor": {"dtype": "DT_FLOAT", "tensorShape": {"dim": [{"size": "1"}, {"size": "1"}, {"size": "176"}, {"size": "176"}]}}}, "dtype": {"type": "DT_FLOAT"}}}, {"name": "StatefulPartitionedCall/sequential_2_1/nasnet_mobile_1/separable_conv_2_bn_normal_left2_10_1/batchnorm/sub", "op": "Const", "attr": {"value": {"tensor": {"dtype": "DT_FLOAT", "tensorShape": {"dim": [{"size": "176"}]}}}, "dtype": {"type": "DT_FLOAT"}}}, {"name": "StatefulPartitionedCall/sequential_2_1/nasnet_mobile_1/separable_conv_1_normal_right2_10_1/separable_conv2d/ReadVariableOp", "op": "Const", "attr": {"value": {"tensor": {"dtype": "DT_FLOAT", "tensorShape": {"dim": [{"size": "3"}, {"size": "3"}, {"size": "176"}, {"size": "1"}]}}}, "dtype": {"type": "DT_FLOAT"}}}, {"name": "StatefulPartitionedCall/sequential_2_1/nasnet_mobile_1/separable_conv_1_normal_right2_10_1/separable_conv2d/merged_input", "op": "Const", "attr": {"value": {"tensor": {"dtype": "DT_FLOAT", "tensorShape": {"dim": [{"size": "1"}, {"size": "1"}, {"size": "176"}, {"size": "176"}]}}}, "dtype": {"type": "DT_FLOAT"}}}, {"name": "StatefulPartitionedCall/sequential_2_1/nasnet_mobile_1/separable_conv_1_bn_normal_right2_10_1/batchnorm/sub", "op": "Const", "attr": {"value": {"tensor": {"dtype": "DT_FLOAT", "tensorShape": {"dim": [{"size": "176"}]}}}, "dtype": {"type": "DT_FLOAT"}}}, {"name": "StatefulPartitionedCall/sequential_2_1/nasnet_mobile_1/separable_conv_2_normal_right2_10_1/separable_conv2d/ReadVariableOp", "op": "Const", "attr": {"value": {"tensor": {"dtype": "DT_FLOAT", "tensorShape": {"dim": [{"size": "3"}, {"size": "3"}, {"size": "176"}, {"size": "1"}]}}}, "dtype": {"type": "DT_FLOAT"}}}, {"name": "StatefulPartitionedCall/sequential_2_1/nasnet_mobile_1/separable_conv_2_normal_right2_10_1/separable_conv2d/merged_input", "op": "Const", "attr": {"value": {"tensor": {"dtype": "DT_FLOAT", "tensorShape": {"dim": [{"size": "1"}, {"size": "1"}, {"size": "176"}, {"size": "176"}]}}}, "dtype": {"type": "DT_FLOAT"}}}, {"name": "StatefulPartitionedCall/sequential_2_1/nasnet_mobile_1/separable_conv_2_bn_normal_right2_10_1/batchnorm/sub", "op": "Const", "attr": {"value": {"tensor": {"dtype": "DT_FLOAT", "tensorShape": {"dim": [{"size": "176"}]}}}, "dtype": {"type": "DT_FLOAT"}}}, {"name": "StatefulPartitionedCall/sequential_2_1/nasnet_mobile_1/adjust_conv_projection_10_1/convolution/merged_input", "op": "Const", "attr": {"value": {"tensor": {"dtype": "DT_FLOAT", "tensorShape": {"dim": [{"size": "1"}, {"size": "1"}, {"size": "704"}, {"size": "176"}]}}}, "dtype": {"type": "DT_FLOAT"}}}, {"name": "StatefulPartitionedCall/sequential_2_1/nasnet_mobile_1/adjust_bn_10_1/batchnorm/sub", "op": "Const", "attr": {"value": {"tensor": {"dtype": "DT_FLOAT", "tensorShape": {"dim": [{"size": "176"}]}}}, "dtype": {"type": "DT_FLOAT"}}}, {"name": "StatefulPartitionedCall/sequential_2_1/nasnet_mobile_1/separable_conv_1_normal_left5_10_1/separable_conv2d/ReadVariableOp", "op": "Const", "attr": {"value": {"tensor": {"dtype": "DT_FLOAT", "tensorShape": {"dim": [{"size": "3"}, {"size": "3"}, {"size": "176"}, {"size": "1"}]}}}, "dtype": {"type": "DT_FLOAT"}}}, {"name": "StatefulPartitionedCall/sequential_2_1/nasnet_mobile_1/separable_conv_1_normal_left5_10_1/separable_conv2d/merged_input", "op": "Const", "attr": {"value": {"tensor": {"dtype": "DT_FLOAT", "tensorShape": {"dim": [{"size": "1"}, {"size": "1"}, {"size": "176"}, {"size": "176"}]}}}, "dtype": {"type": "DT_FLOAT"}}}, {"name": "StatefulPartitionedCall/sequential_2_1/nasnet_mobile_1/separable_conv_1_bn_normal_left5_10_1/batchnorm/sub", "op": "Const", "attr": {"value": {"tensor": {"dtype": "DT_FLOAT", "tensorShape": {"dim": [{"size": "176"}]}}}, "dtype": {"type": "DT_FLOAT"}}}, {"name": "StatefulPartitionedCall/sequential_2_1/nasnet_mobile_1/separable_conv_2_normal_left5_10_1/separable_conv2d/ReadVariableOp", "op": "Const", "attr": {"value": {"tensor": {"dtype": "DT_FLOAT", "tensorShape": {"dim": [{"size": "3"}, {"size": "3"}, {"size": "176"}, {"size": "1"}]}}}, "dtype": {"type": "DT_FLOAT"}}}, {"name": "StatefulPartitionedCall/sequential_2_1/nasnet_mobile_1/separable_conv_2_normal_left5_10_1/separable_conv2d/merged_input", "op": "Const", "attr": {"value": {"tensor": {"dtype": "DT_FLOAT", "tensorShape": {"dim": [{"size": "1"}, {"size": "1"}, {"size": "176"}, {"size": "176"}]}}}, "dtype": {"type": "DT_FLOAT"}}}, {"name": "StatefulPartitionedCall/sequential_2_1/nasnet_mobile_1/separable_conv_2_bn_normal_left5_10_1/batchnorm/sub", "op": "Const", "attr": {"value": {"tensor": {"dtype": "DT_FLOAT", "tensorShape": {"dim": [{"size": "176"}]}}}, "dtype": {"type": "DT_FLOAT"}}}, {"name": "StatefulPartitionedCall/sequential_2_1/nasnet_mobile_1/separable_conv_1_normal_left1_9_1/separable_conv2d/ReadVariableOp", "op": "Const", "attr": {"value": {"tensor": {"dtype": "DT_FLOAT", "tensorShape": {"dim": [{"size": "5"}, {"size": "5"}, {"size": "176"}, {"size": "1"}]}}}, "dtype": {"type": "DT_FLOAT"}}}, {"name": "StatefulPartitionedCall/sequential_2_1/nasnet_mobile_1/separable_conv_1_normal_left1_9_1/separable_conv2d/merged_input", "op": "Const", "attr": {"value": {"tensor": {"dtype": "DT_FLOAT", "tensorShape": {"dim": [{"size": "1"}, {"size": "1"}, {"size": "176"}, {"size": "176"}]}}}, "dtype": {"type": "DT_FLOAT"}}}, {"name": "StatefulPartitionedCall/sequential_2_1/nasnet_mobile_1/separable_conv_1_bn_normal_left1_9_1/batchnorm/sub", "op": "Const", "attr": {"value": {"tensor": {"dtype": "DT_FLOAT", "tensorShape": {"dim": [{"size": "176"}]}}}, "dtype": {"type": "DT_FLOAT"}}}, {"name": "StatefulPartitionedCall/sequential_2_1/nasnet_mobile_1/separable_conv_2_normal_left1_9_1/separable_conv2d/ReadVariableOp", "op": "Const", "attr": {"value": {"tensor": {"dtype": "DT_FLOAT", "tensorShape": {"dim": [{"size": "5"}, {"size": "5"}, {"size": "176"}, {"size": "1"}]}}}, "dtype": {"type": "DT_FLOAT"}}}, {"name": "StatefulPartitionedCall/sequential_2_1/nasnet_mobile_1/separable_conv_2_normal_left1_9_1/separable_conv2d/merged_input", "op": "Const", "attr": {"value": {"tensor": {"dtype": "DT_FLOAT", "tensorShape": {"dim": [{"size": "1"}, {"size": "1"}, {"size": "176"}, {"size": "176"}]}}}, "dtype": {"type": "DT_FLOAT"}}}, {"name": "StatefulPartitionedCall/sequential_2_1/nasnet_mobile_1/separable_conv_2_bn_normal_left1_9_1/batchnorm/sub", "op": "Const", "attr": {"value": {"tensor": {"dtype": "DT_FLOAT", "tensorShape": {"dim": [{"size": "176"}]}}}, "dtype": {"type": "DT_FLOAT"}}}, {"name": "StatefulPartitionedCall/sequential_2_1/nasnet_mobile_1/separable_conv_1_normal_right1_9_1/separable_conv2d/ReadVariableOp", "op": "Const", "attr": {"value": {"tensor": {"dtype": "DT_FLOAT", "tensorShape": {"dim": [{"size": "3"}, {"size": "3"}, {"size": "176"}, {"size": "1"}]}}}, "dtype": {"type": "DT_FLOAT"}}}, {"name": "StatefulPartitionedCall/sequential_2_1/nasnet_mobile_1/separable_conv_1_normal_right1_9_1/separable_conv2d/merged_input", "op": "Const", "attr": {"value": {"tensor": {"dtype": "DT_FLOAT", "tensorShape": {"dim": [{"size": "1"}, {"size": "1"}, {"size": "176"}, {"size": "176"}]}}}, "dtype": {"type": "DT_FLOAT"}}}, {"name": "StatefulPartitionedCall/sequential_2_1/nasnet_mobile_1/separable_conv_1_bn_normal_right1_9_1/batchnorm/sub", "op": "Const", "attr": {"value": {"tensor": {"dtype": "DT_FLOAT", "tensorShape": {"dim": [{"size": "176"}]}}}, "dtype": {"type": "DT_FLOAT"}}}, {"name": "StatefulPartitionedCall/sequential_2_1/nasnet_mobile_1/separable_conv_2_normal_right1_9_1/separable_conv2d/ReadVariableOp", "op": "Const", "attr": {"value": {"tensor": {"dtype": "DT_FLOAT", "tensorShape": {"dim": [{"size": "3"}, {"size": "3"}, {"size": "176"}, {"size": "1"}]}}}, "dtype": {"type": "DT_FLOAT"}}}, {"name": "StatefulPartitionedCall/sequential_2_1/nasnet_mobile_1/separable_conv_2_normal_right1_9_1/separable_conv2d/merged_input", "op": "Const", "attr": {"value": {"tensor": {"dtype": "DT_FLOAT", "tensorShape": {"dim": [{"size": "1"}, {"size": "1"}, {"size": "176"}, {"size": "176"}]}}}, "dtype": {"type": "DT_FLOAT"}}}, {"name": "StatefulPartitionedCall/sequential_2_1/nasnet_mobile_1/separable_conv_2_bn_normal_right1_9_1/batchnorm/sub", "op": "Const", "attr": {"value": {"tensor": {"dtype": "DT_FLOAT", "tensorShape": {"dim": [{"size": "176"}]}}}, "dtype": {"type": "DT_FLOAT"}}}, {"name": "StatefulPartitionedCall/sequential_2_1/nasnet_mobile_1/separable_conv_1_normal_left2_9_1/separable_conv2d/ReadVariableOp", "op": "Const", "attr": {"value": {"tensor": {"dtype": "DT_FLOAT", "tensorShape": {"dim": [{"size": "5"}, {"size": "5"}, {"size": "176"}, {"size": "1"}]}}}, "dtype": {"type": "DT_FLOAT"}}}, {"name": "StatefulPartitionedCall/sequential_2_1/nasnet_mobile_1/separable_conv_1_normal_left2_9_1/separable_conv2d/merged_input", "op": "Const", "attr": {"value": {"tensor": {"dtype": "DT_FLOAT", "tensorShape": {"dim": [{"size": "1"}, {"size": "1"}, {"size": "176"}, {"size": "176"}]}}}, "dtype": {"type": "DT_FLOAT"}}}, {"name": "StatefulPartitionedCall/sequential_2_1/nasnet_mobile_1/separable_conv_1_bn_normal_left2_9_1/batchnorm/sub", "op": "Const", "attr": {"value": {"tensor": {"dtype": "DT_FLOAT", "tensorShape": {"dim": [{"size": "176"}]}}}, "dtype": {"type": "DT_FLOAT"}}}, {"name": "StatefulPartitionedCall/sequential_2_1/nasnet_mobile_1/separable_conv_2_normal_left2_9_1/separable_conv2d/ReadVariableOp", "op": "Const", "attr": {"value": {"tensor": {"dtype": "DT_FLOAT", "tensorShape": {"dim": [{"size": "5"}, {"size": "5"}, {"size": "176"}, {"size": "1"}]}}}, "dtype": {"type": "DT_FLOAT"}}}, {"name": "StatefulPartitionedCall/sequential_2_1/nasnet_mobile_1/separable_conv_2_normal_left2_9_1/separable_conv2d/merged_input", "op": "Const", "attr": {"value": {"tensor": {"dtype": "DT_FLOAT", "tensorShape": {"dim": [{"size": "1"}, {"size": "1"}, {"size": "176"}, {"size": "176"}]}}}, "dtype": {"type": "DT_FLOAT"}}}, {"name": "StatefulPartitionedCall/sequential_2_1/nasnet_mobile_1/separable_conv_2_bn_normal_left2_9_1/batchnorm/sub", "op": "Const", "attr": {"value": {"tensor": {"dtype": "DT_FLOAT", "tensorShape": {"dim": [{"size": "176"}]}}}, "dtype": {"type": "DT_FLOAT"}}}, {"name": "StatefulPartitionedCall/sequential_2_1/nasnet_mobile_1/separable_conv_1_normal_right2_9_1/separable_conv2d/ReadVariableOp", "op": "Const", "attr": {"value": {"tensor": {"dtype": "DT_FLOAT", "tensorShape": {"dim": [{"size": "3"}, {"size": "3"}, {"size": "176"}, {"size": "1"}]}}}, "dtype": {"type": "DT_FLOAT"}}}, {"name": "StatefulPartitionedCall/sequential_2_1/nasnet_mobile_1/separable_conv_1_normal_right2_9_1/separable_conv2d/merged_input", "op": "Const", "attr": {"value": {"tensor": {"dtype": "DT_FLOAT", "tensorShape": {"dim": [{"size": "1"}, {"size": "1"}, {"size": "176"}, {"size": "176"}]}}}, "dtype": {"type": "DT_FLOAT"}}}, {"name": "StatefulPartitionedCall/sequential_2_1/nasnet_mobile_1/separable_conv_1_bn_normal_right2_9_1/batchnorm/sub", "op": "Const", "attr": {"value": {"tensor": {"dtype": "DT_FLOAT", "tensorShape": {"dim": [{"size": "176"}]}}}, "dtype": {"type": "DT_FLOAT"}}}, {"name": "StatefulPartitionedCall/sequential_2_1/nasnet_mobile_1/separable_conv_2_normal_right2_9_1/separable_conv2d/ReadVariableOp", "op": "Const", "attr": {"value": {"tensor": {"dtype": "DT_FLOAT", "tensorShape": {"dim": [{"size": "3"}, {"size": "3"}, {"size": "176"}, {"size": "1"}]}}}, "dtype": {"type": "DT_FLOAT"}}}, {"name": "StatefulPartitionedCall/sequential_2_1/nasnet_mobile_1/separable_conv_2_normal_right2_9_1/separable_conv2d/merged_input", "op": "Const", "attr": {"value": {"tensor": {"dtype": "DT_FLOAT", "tensorShape": {"dim": [{"size": "1"}, {"size": "1"}, {"size": "176"}, {"size": "176"}]}}}, "dtype": {"type": "DT_FLOAT"}}}, {"name": "StatefulPartitionedCall/sequential_2_1/nasnet_mobile_1/separable_conv_2_bn_normal_right2_9_1/batchnorm/sub", "op": "Const", "attr": {"value": {"tensor": {"dtype": "DT_FLOAT", "tensorShape": {"dim": [{"size": "176"}]}}}, "dtype": {"type": "DT_FLOAT"}}}, {"name": "StatefulPartitionedCall/sequential_2_1/nasnet_mobile_1/adjust_conv_1_9_1/convolution/ReadVariableOp", "op": "Const", "attr": {"value": {"tensor": {"dtype": "DT_FLOAT", "tensorShape": {"dim": [{"size": "1"}, {"size": "1"}, {"size": "528"}, {"size": "88"}]}}}, "dtype": {"type": "DT_FLOAT"}}}, {"name": "StatefulPartitionedCall/sequential_2_1/nasnet_mobile_1/zero_padding2d_3_1/Const", "op": "Const", "attr": {"value": {"tensor": {"dtype": "DT_INT32", "tensorShape": {"dim": [{"size": "4"}, {"size": "2"}]}}}, "dtype": {"type": "DT_INT32"}}}, {"name": "StatefulPartitionedCall/sequential_2_1/nasnet_mobile_1/cropping2d_3_1/strided_slice/stack", "op": "Const", "attr": {"value": {"tensor": {"dtype": "DT_INT32", "tensorShape": {"dim": [{"size": "4"}]}}}, "dtype": {"type": "DT_INT32"}}}, {"name": "StatefulPartitionedCall/sequential_2_1/nasnet_mobile_1/cropping2d_3_1/strided_slice/stack_1", "op": "Const", "attr": {"value": {"tensor": {"dtype": "DT_INT32", "tensorShape": {"dim": [{"size": "4"}]}}}, "dtype": {"type": "DT_INT32"}}}, {"name": "StatefulPartitionedCall/sequential_2_1/nasnet_mobile_1/cropping2d_3_1/strided_slice/stack_2", "op": "Const", "attr": {"value": {"tensor": {"dtype": "DT_INT32", "tensorShape": {"dim": [{"size": "4"}]}}}, "dtype": {"type": "DT_INT32"}}}, {"name": "StatefulPartitionedCall/sequential_2_1/nasnet_mobile_1/adjust_conv_2_9_1/convolution/ReadVariableOp", "op": "Const", "attr": {"value": {"tensor": {"dtype": "DT_FLOAT", "tensorShape": {"dim": [{"size": "1"}, {"size": "1"}, {"size": "528"}, {"size": "88"}]}}}, "dtype": {"type": "DT_FLOAT"}}}, {"name": "StatefulPartitionedCall/sequential_2_1/nasnet_mobile_1/concatenate_3_1/concat/axis", "op": "Const", "attr": {"value": {"tensor": {"dtype": "DT_INT32", "tensorShape": {}}}, "dtype": {"type": "DT_INT32"}}}, {"name": "StatefulPartitionedCall/sequential_2_1/nasnet_mobile_1/adjust_bn_9_1/batchnorm/mul", "op": "Const", "attr": {"value": {"tensor": {"dtype": "DT_FLOAT", "tensorShape": {"dim": [{"size": "176"}]}}}, "dtype": {"type": "DT_FLOAT"}}}, {"name": "StatefulPartitionedCall/sequential_2_1/nasnet_mobile_1/adjust_bn_9_1/batchnorm/sub", "op": "Const", "attr": {"value": {"tensor": {"dtype": "DT_FLOAT", "tensorShape": {"dim": [{"size": "176"}]}}}, "dtype": {"type": "DT_FLOAT"}}}, {"name": "StatefulPartitionedCall/sequential_2_1/nasnet_mobile_1/separable_conv_1_normal_left5_9_1/separable_conv2d/ReadVariableOp", "op": "Const", "attr": {"value": {"tensor": {"dtype": "DT_FLOAT", "tensorShape": {"dim": [{"size": "3"}, {"size": "3"}, {"size": "176"}, {"size": "1"}]}}}, "dtype": {"type": "DT_FLOAT"}}}, {"name": "StatefulPartitionedCall/sequential_2_1/nasnet_mobile_1/separable_conv_1_normal_left5_9_1/separable_conv2d/merged_input", "op": "Const", "attr": {"value": {"tensor": {"dtype": "DT_FLOAT", "tensorShape": {"dim": [{"size": "1"}, {"size": "1"}, {"size": "176"}, {"size": "176"}]}}}, "dtype": {"type": "DT_FLOAT"}}}, {"name": "StatefulPartitionedCall/sequential_2_1/nasnet_mobile_1/separable_conv_1_bn_normal_left5_9_1/batchnorm/sub", "op": "Const", "attr": {"value": {"tensor": {"dtype": "DT_FLOAT", "tensorShape": {"dim": [{"size": "176"}]}}}, "dtype": {"type": "DT_FLOAT"}}}, {"name": "StatefulPartitionedCall/sequential_2_1/nasnet_mobile_1/separable_conv_2_normal_left5_9_1/separable_conv2d/ReadVariableOp", "op": "Const", "attr": {"value": {"tensor": {"dtype": "DT_FLOAT", "tensorShape": {"dim": [{"size": "3"}, {"size": "3"}, {"size": "176"}, {"size": "1"}]}}}, "dtype": {"type": "DT_FLOAT"}}}, {"name": "StatefulPartitionedCall/sequential_2_1/nasnet_mobile_1/separable_conv_2_normal_left5_9_1/separable_conv2d/merged_input", "op": "Const", "attr": {"value": {"tensor": {"dtype": "DT_FLOAT", "tensorShape": {"dim": [{"size": "1"}, {"size": "1"}, {"size": "176"}, {"size": "176"}]}}}, "dtype": {"type": "DT_FLOAT"}}}, {"name": "StatefulPartitionedCall/sequential_2_1/nasnet_mobile_1/separable_conv_2_bn_normal_left5_9_1/batchnorm/sub", "op": "Const", "attr": {"value": {"tensor": {"dtype": "DT_FLOAT", "tensorShape": {"dim": [{"size": "176"}]}}}, "dtype": {"type": "DT_FLOAT"}}}, {"name": "StatefulPartitionedCall/sequential_2_1/nasnet_mobile_1/separable_conv_1_pad_reduction_right3_reduce_8_1/Const", "op": "Const", "attr": {"value": {"tensor": {"dtype": "DT_INT32", "tensorShape": {"dim": [{"size": "4"}, {"size": "2"}]}}}, "dtype": {"type": "DT_INT32"}}}, {"name": "StatefulPartitionedCall/sequential_2_1/nasnet_mobile_1/separable_conv_1_reduction_right3_reduce_8_1/separable_conv2d/ReadVariableOp", "op": "Const", "attr": {"value": {"tensor": {"dtype": "DT_FLOAT", "tensorShape": {"dim": [{"size": "5"}, {"size": "5"}, {"size": "176"}, {"size": "1"}]}}}, "dtype": {"type": "DT_FLOAT"}}}, {"name": "StatefulPartitionedCall/sequential_2_1/nasnet_mobile_1/separable_conv_1_reduction_right3_reduce_8_1/separable_conv2d/merged_input", "op": "Const", "attr": {"value": {"tensor": {"dtype": "DT_FLOAT", "tensorShape": {"dim": [{"size": "1"}, {"size": "1"}, {"size": "176"}, {"size": "176"}]}}}, "dtype": {"type": "DT_FLOAT"}}}, {"name": "StatefulPartitionedCall/sequential_2_1/nasnet_mobile_1/separable_conv_1_bn_reduction_right3_reduce_8_1/batchnorm/sub", "op": "Const", "attr": {"value": {"tensor": {"dtype": "DT_FLOAT", "tensorShape": {"dim": [{"size": "176"}]}}}, "dtype": {"type": "DT_FLOAT"}}}, {"name": "StatefulPartitionedCall/sequential_2_1/nasnet_mobile_1/separable_conv_2_reduction_right3_reduce_8_1/separable_conv2d/ReadVariableOp", "op": "Const", "attr": {"value": {"tensor": {"dtype": "DT_FLOAT", "tensorShape": {"dim": [{"size": "5"}, {"size": "5"}, {"size": "176"}, {"size": "1"}]}}}, "dtype": {"type": "DT_FLOAT"}}}, {"name": "StatefulPartitionedCall/sequential_2_1/nasnet_mobile_1/separable_conv_2_reduction_right3_reduce_8_1/separable_conv2d/merged_input", "op": "Const", "attr": {"value": {"tensor": {"dtype": "DT_FLOAT", "tensorShape": {"dim": [{"size": "1"}, {"size": "1"}, {"size": "176"}, {"size": "176"}]}}}, "dtype": {"type": "DT_FLOAT"}}}, {"name": "StatefulPartitionedCall/sequential_2_1/nasnet_mobile_1/separable_conv_2_bn_reduction_right3_reduce_8_1/batchnorm/sub", "op": "Const", "attr": {"value": {"tensor": {"dtype": "DT_FLOAT", "tensorShape": {"dim": [{"size": "176"}]}}}, "dtype": {"type": "DT_FLOAT"}}}, {"name": "StatefulPartitionedCall/sequential_2_1/nasnet_mobile_1/separable_conv_1_pad_reduction_right2_reduce_8_1/Const", "op": "Const", "attr": {"value": {"tensor": {"dtype": "DT_INT32", "tensorShape": {"dim": [{"size": "4"}, {"size": "2"}]}}}, "dtype": {"type": "DT_INT32"}}}, {"name": "StatefulPartitionedCall/sequential_2_1/nasnet_mobile_1/separable_conv_1_reduction_right2_reduce_8_1/separable_conv2d/ReadVariableOp", "op": "Const", "attr": {"value": {"tensor": {"dtype": "DT_FLOAT", "tensorShape": {"dim": [{"size": "7"}, {"size": "7"}, {"size": "176"}, {"size": "1"}]}}}, "dtype": {"type": "DT_FLOAT"}}}, {"name": "StatefulPartitionedCall/sequential_2_1/nasnet_mobile_1/separable_conv_1_reduction_right2_reduce_8_1/separable_conv2d/merged_input", "op": "Const", "attr": {"value": {"tensor": {"dtype": "DT_FLOAT", "tensorShape": {"dim": [{"size": "1"}, {"size": "1"}, {"size": "176"}, {"size": "176"}]}}}, "dtype": {"type": "DT_FLOAT"}}}, {"name": "StatefulPartitionedCall/sequential_2_1/nasnet_mobile_1/separable_conv_1_bn_reduction_right2_reduce_8_1/batchnorm/sub", "op": "Const", "attr": {"value": {"tensor": {"dtype": "DT_FLOAT", "tensorShape": {"dim": [{"size": "176"}]}}}, "dtype": {"type": "DT_FLOAT"}}}, {"name": "StatefulPartitionedCall/sequential_2_1/nasnet_mobile_1/separable_conv_2_reduction_right2_reduce_8_1/separable_conv2d/ReadVariableOp", "op": "Const", "attr": {"value": {"tensor": {"dtype": "DT_FLOAT", "tensorShape": {"dim": [{"size": "7"}, {"size": "7"}, {"size": "176"}, {"size": "1"}]}}}, "dtype": {"type": "DT_FLOAT"}}}, {"name": "StatefulPartitionedCall/sequential_2_1/nasnet_mobile_1/separable_conv_2_reduction_right2_reduce_8_1/separable_conv2d/merged_input", "op": "Const", "attr": {"value": {"tensor": {"dtype": "DT_FLOAT", "tensorShape": {"dim": [{"size": "1"}, {"size": "1"}, {"size": "176"}, {"size": "176"}]}}}, "dtype": {"type": "DT_FLOAT"}}}, {"name": "StatefulPartitionedCall/sequential_2_1/nasnet_mobile_1/separable_conv_2_bn_reduction_right2_reduce_8_1/batchnorm/sub", "op": "Const", "attr": {"value": {"tensor": {"dtype": "DT_FLOAT", "tensorShape": {"dim": [{"size": "176"}]}}}, "dtype": {"type": "DT_FLOAT"}}}, {"name": "StatefulPartitionedCall/sequential_2_1/nasnet_mobile_1/separable_conv_1_pad_reduction_left1_reduce_8_1/Const", "op": "Const", "attr": {"value": {"tensor": {"dtype": "DT_INT32", "tensorShape": {"dim": [{"size": "4"}, {"size": "2"}]}}}, "dtype": {"type": "DT_INT32"}}}, {"name": "StatefulPartitionedCall/sequential_2_1/nasnet_mobile_1/separable_conv_1_reduction_left1_reduce_8_1/separable_conv2d/ReadVariableOp", "op": "Const", "attr": {"value": {"tensor": {"dtype": "DT_FLOAT", "tensorShape": {"dim": [{"size": "5"}, {"size": "5"}, {"size": "176"}, {"size": "1"}]}}}, "dtype": {"type": "DT_FLOAT"}}}, {"name": "StatefulPartitionedCall/sequential_2_1/nasnet_mobile_1/separable_conv_1_reduction_left1_reduce_8_1/separable_conv2d/merged_input", "op": "Const", "attr": {"value": {"tensor": {"dtype": "DT_FLOAT", "tensorShape": {"dim": [{"size": "1"}, {"size": "1"}, {"size": "176"}, {"size": "176"}]}}}, "dtype": {"type": "DT_FLOAT"}}}, {"name": "StatefulPartitionedCall/sequential_2_1/nasnet_mobile_1/separable_conv_1_bn_reduction_left1_reduce_8_1/batchnorm/sub", "op": "Const", "attr": {"value": {"tensor": {"dtype": "DT_FLOAT", "tensorShape": {"dim": [{"size": "176"}]}}}, "dtype": {"type": "DT_FLOAT"}}}, {"name": "StatefulPartitionedCall/sequential_2_1/nasnet_mobile_1/separable_conv_2_reduction_left1_reduce_8_1/separable_conv2d/ReadVariableOp", "op": "Const", "attr": {"value": {"tensor": {"dtype": "DT_FLOAT", "tensorShape": {"dim": [{"size": "5"}, {"size": "5"}, {"size": "176"}, {"size": "1"}]}}}, "dtype": {"type": "DT_FLOAT"}}}, {"name": "StatefulPartitionedCall/sequential_2_1/nasnet_mobile_1/separable_conv_2_reduction_left1_reduce_8_1/separable_conv2d/merged_input", "op": "Const", "attr": {"value": {"tensor": {"dtype": "DT_FLOAT", "tensorShape": {"dim": [{"size": "1"}, {"size": "1"}, {"size": "176"}, {"size": "176"}]}}}, "dtype": {"type": "DT_FLOAT"}}}, {"name": "StatefulPartitionedCall/sequential_2_1/nasnet_mobile_1/separable_conv_2_bn_reduction_left1_reduce_8_1/batchnorm/sub", "op": "Const", "attr": {"value": {"tensor": {"dtype": "DT_FLOAT", "tensorShape": {"dim": [{"size": "176"}]}}}, "dtype": {"type": "DT_FLOAT"}}}, {"name": "StatefulPartitionedCall/sequential_2_1/nasnet_mobile_1/adjust_conv_projection_reduce_8_1/convolution/merged_input", "op": "Const", "attr": {"value": {"tensor": {"dtype": "DT_FLOAT", "tensorShape": {"dim": [{"size": "1"}, {"size": "1"}, {"size": "528"}, {"size": "176"}]}}}, "dtype": {"type": "DT_FLOAT"}}}, {"name": "StatefulPartitionedCall/sequential_2_1/nasnet_mobile_1/adjust_bn_reduce_8_1/batchnorm/sub", "op": "Const", "attr": {"value": {"tensor": {"dtype": "DT_FLOAT", "tensorShape": {"dim": [{"size": "176"}]}}}, "dtype": {"type": "DT_FLOAT"}}}, {"name": "StatefulPartitionedCall/sequential_2_1/nasnet_mobile_1/separable_conv_1_pad_reduction_right1_reduce_8_1/Const", "op": "Const", "attr": {"value": {"tensor": {"dtype": "DT_INT32", "tensorShape": {"dim": [{"size": "4"}, {"size": "2"}]}}}, "dtype": {"type": "DT_INT32"}}}, {"name": "StatefulPartitionedCall/sequential_2_1/nasnet_mobile_1/separable_conv_1_reduction_right1_reduce_8_1/separable_conv2d/ReadVariableOp", "op": "Const", "attr": {"value": {"tensor": {"dtype": "DT_FLOAT", "tensorShape": {"dim": [{"size": "7"}, {"size": "7"}, {"size": "176"}, {"size": "1"}]}}}, "dtype": {"type": "DT_FLOAT"}}}, {"name": "StatefulPartitionedCall/sequential_2_1/nasnet_mobile_1/separable_conv_1_reduction_right1_reduce_8_1/separable_conv2d/merged_input", "op": "Const", "attr": {"value": {"tensor": {"dtype": "DT_FLOAT", "tensorShape": {"dim": [{"size": "1"}, {"size": "1"}, {"size": "176"}, {"size": "176"}]}}}, "dtype": {"type": "DT_FLOAT"}}}, {"name": "StatefulPartitionedCall/sequential_2_1/nasnet_mobile_1/separable_conv_1_bn_reduction_right1_reduce_8_1/batchnorm/sub", "op": "Const", "attr": {"value": {"tensor": {"dtype": "DT_FLOAT", "tensorShape": {"dim": [{"size": "176"}]}}}, "dtype": {"type": "DT_FLOAT"}}}, {"name": "StatefulPartitionedCall/sequential_2_1/nasnet_mobile_1/separable_conv_2_reduction_right1_reduce_8_1/separable_conv2d/ReadVariableOp", "op": "Const", "attr": {"value": {"tensor": {"dtype": "DT_FLOAT", "tensorShape": {"dim": [{"size": "7"}, {"size": "7"}, {"size": "176"}, {"size": "1"}]}}}, "dtype": {"type": "DT_FLOAT"}}}, {"name": "StatefulPartitionedCall/sequential_2_1/nasnet_mobile_1/separable_conv_2_reduction_right1_reduce_8_1/separable_conv2d/merged_input", "op": "Const", "attr": {"value": {"tensor": {"dtype": "DT_FLOAT", "tensorShape": {"dim": [{"size": "1"}, {"size": "1"}, {"size": "176"}, {"size": "176"}]}}}, "dtype": {"type": "DT_FLOAT"}}}, {"name": "StatefulPartitionedCall/sequential_2_1/nasnet_mobile_1/separable_conv_2_bn_reduction_right1_reduce_8_1/batchnorm/sub", "op": "Const", "attr": {"value": {"tensor": {"dtype": "DT_FLOAT", "tensorShape": {"dim": [{"size": "176"}]}}}, "dtype": {"type": "DT_FLOAT"}}}, {"name": "StatefulPartitionedCall/sequential_2_1/nasnet_mobile_1/separable_conv_1_reduction_left4_reduce_8_1/separable_conv2d/ReadVariableOp", "op": "Const", "attr": {"value": {"tensor": {"dtype": "DT_FLOAT", "tensorShape": {"dim": [{"size": "3"}, {"size": "3"}, {"size": "176"}, {"size": "1"}]}}}, "dtype": {"type": "DT_FLOAT"}}}, {"name": "StatefulPartitionedCall/sequential_2_1/nasnet_mobile_1/separable_conv_1_reduction_left4_reduce_8_1/separable_conv2d/merged_input", "op": "Const", "attr": {"value": {"tensor": {"dtype": "DT_FLOAT", "tensorShape": {"dim": [{"size": "1"}, {"size": "1"}, {"size": "176"}, {"size": "176"}]}}}, "dtype": {"type": "DT_FLOAT"}}}, {"name": "StatefulPartitionedCall/sequential_2_1/nasnet_mobile_1/separable_conv_1_bn_reduction_left4_reduce_8_1/batchnorm/sub", "op": "Const", "attr": {"value": {"tensor": {"dtype": "DT_FLOAT", "tensorShape": {"dim": [{"size": "176"}]}}}, "dtype": {"type": "DT_FLOAT"}}}, {"name": "StatefulPartitionedCall/sequential_2_1/nasnet_mobile_1/separable_conv_2_reduction_left4_reduce_8_1/separable_conv2d/ReadVariableOp", "op": "Const", "attr": {"value": {"tensor": {"dtype": "DT_FLOAT", "tensorShape": {"dim": [{"size": "3"}, {"size": "3"}, {"size": "176"}, {"size": "1"}]}}}, "dtype": {"type": "DT_FLOAT"}}}, {"name": "StatefulPartitionedCall/sequential_2_1/nasnet_mobile_1/separable_conv_2_reduction_left4_reduce_8_1/separable_conv2d/merged_input", "op": "Const", "attr": {"value": {"tensor": {"dtype": "DT_FLOAT", "tensorShape": {"dim": [{"size": "1"}, {"size": "1"}, {"size": "176"}, {"size": "176"}]}}}, "dtype": {"type": "DT_FLOAT"}}}, {"name": "StatefulPartitionedCall/sequential_2_1/nasnet_mobile_1/separable_conv_2_bn_reduction_left4_reduce_8_1/batchnorm/sub", "op": "Const", "attr": {"value": {"tensor": {"dtype": "DT_FLOAT", "tensorShape": {"dim": [{"size": "176"}]}}}, "dtype": {"type": "DT_FLOAT"}}}, {"name": "StatefulPartitionedCall/sequential_2_1/nasnet_mobile_1/separable_conv_1_normal_left1_8_1/separable_conv2d/ReadVariableOp", "op": "Const", "attr": {"value": {"tensor": {"dtype": "DT_FLOAT", "tensorShape": {"dim": [{"size": "5"}, {"size": "5"}, {"size": "88"}, {"size": "1"}]}}}, "dtype": {"type": "DT_FLOAT"}}}, {"name": "StatefulPartitionedCall/sequential_2_1/nasnet_mobile_1/separable_conv_1_normal_left1_8_1/separable_conv2d/merged_input", "op": "Const", "attr": {"value": {"tensor": {"dtype": "DT_FLOAT", "tensorShape": {"dim": [{"size": "1"}, {"size": "1"}, {"size": "88"}, {"size": "88"}]}}}, "dtype": {"type": "DT_FLOAT"}}}, {"name": "StatefulPartitionedCall/sequential_2_1/nasnet_mobile_1/separable_conv_1_bn_normal_left1_8_1/batchnorm/sub", "op": "Const", "attr": {"value": {"tensor": {"dtype": "DT_FLOAT", "tensorShape": {"dim": [{"size": "88"}]}}}, "dtype": {"type": "DT_FLOAT"}}}, {"name": "StatefulPartitionedCall/sequential_2_1/nasnet_mobile_1/separable_conv_2_normal_left1_8_1/separable_conv2d/ReadVariableOp", "op": "Const", "attr": {"value": {"tensor": {"dtype": "DT_FLOAT", "tensorShape": {"dim": [{"size": "5"}, {"size": "5"}, {"size": "88"}, {"size": "1"}]}}}, "dtype": {"type": "DT_FLOAT"}}}, {"name": "StatefulPartitionedCall/sequential_2_1/nasnet_mobile_1/separable_conv_2_normal_left1_8_1/separable_conv2d/merged_input", "op": "Const", "attr": {"value": {"tensor": {"dtype": "DT_FLOAT", "tensorShape": {"dim": [{"size": "1"}, {"size": "1"}, {"size": "88"}, {"size": "88"}]}}}, "dtype": {"type": "DT_FLOAT"}}}, {"name": "StatefulPartitionedCall/sequential_2_1/nasnet_mobile_1/separable_conv_2_bn_normal_left1_8_1/batchnorm/sub", "op": "Const", "attr": {"value": {"tensor": {"dtype": "DT_FLOAT", "tensorShape": {"dim": [{"size": "88"}]}}}, "dtype": {"type": "DT_FLOAT"}}}, {"name": "StatefulPartitionedCall/sequential_2_1/nasnet_mobile_1/separable_conv_1_normal_right1_8_1/separable_conv2d/ReadVariableOp", "op": "Const", "attr": {"value": {"tensor": {"dtype": "DT_FLOAT", "tensorShape": {"dim": [{"size": "3"}, {"size": "3"}, {"size": "88"}, {"size": "1"}]}}}, "dtype": {"type": "DT_FLOAT"}}}, {"name": "StatefulPartitionedCall/sequential_2_1/nasnet_mobile_1/separable_conv_1_normal_right1_8_1/separable_conv2d/merged_input", "op": "Const", "attr": {"value": {"tensor": {"dtype": "DT_FLOAT", "tensorShape": {"dim": [{"size": "1"}, {"size": "1"}, {"size": "88"}, {"size": "88"}]}}}, "dtype": {"type": "DT_FLOAT"}}}, {"name": "StatefulPartitionedCall/sequential_2_1/nasnet_mobile_1/separable_conv_1_bn_normal_right1_8_1/batchnorm/sub", "op": "Const", "attr": {"value": {"tensor": {"dtype": "DT_FLOAT", "tensorShape": {"dim": [{"size": "88"}]}}}, "dtype": {"type": "DT_FLOAT"}}}, {"name": "StatefulPartitionedCall/sequential_2_1/nasnet_mobile_1/separable_conv_2_normal_right1_8_1/separable_conv2d/ReadVariableOp", "op": "Const", "attr": {"value": {"tensor": {"dtype": "DT_FLOAT", "tensorShape": {"dim": [{"size": "3"}, {"size": "3"}, {"size": "88"}, {"size": "1"}]}}}, "dtype": {"type": "DT_FLOAT"}}}, {"name": "StatefulPartitionedCall/sequential_2_1/nasnet_mobile_1/separable_conv_2_normal_right1_8_1/separable_conv2d/merged_input", "op": "Const", "attr": {"value": {"tensor": {"dtype": "DT_FLOAT", "tensorShape": {"dim": [{"size": "1"}, {"size": "1"}, {"size": "88"}, {"size": "88"}]}}}, "dtype": {"type": "DT_FLOAT"}}}, {"name": "StatefulPartitionedCall/sequential_2_1/nasnet_mobile_1/separable_conv_2_bn_normal_right1_8_1/batchnorm/sub", "op": "Const", "attr": {"value": {"tensor": {"dtype": "DT_FLOAT", "tensorShape": {"dim": [{"size": "88"}]}}}, "dtype": {"type": "DT_FLOAT"}}}, {"name": "StatefulPartitionedCall/sequential_2_1/nasnet_mobile_1/separable_conv_1_normal_left2_8_1/separable_conv2d/ReadVariableOp", "op": "Const", "attr": {"value": {"tensor": {"dtype": "DT_FLOAT", "tensorShape": {"dim": [{"size": "5"}, {"size": "5"}, {"size": "88"}, {"size": "1"}]}}}, "dtype": {"type": "DT_FLOAT"}}}, {"name": "StatefulPartitionedCall/sequential_2_1/nasnet_mobile_1/separable_conv_1_normal_left2_8_1/separable_conv2d/merged_input", "op": "Const", "attr": {"value": {"tensor": {"dtype": "DT_FLOAT", "tensorShape": {"dim": [{"size": "1"}, {"size": "1"}, {"size": "88"}, {"size": "88"}]}}}, "dtype": {"type": "DT_FLOAT"}}}, {"name": "StatefulPartitionedCall/sequential_2_1/nasnet_mobile_1/separable_conv_1_bn_normal_left2_8_1/batchnorm/sub", "op": "Const", "attr": {"value": {"tensor": {"dtype": "DT_FLOAT", "tensorShape": {"dim": [{"size": "88"}]}}}, "dtype": {"type": "DT_FLOAT"}}}, {"name": "StatefulPartitionedCall/sequential_2_1/nasnet_mobile_1/separable_conv_2_normal_left2_8_1/separable_conv2d/ReadVariableOp", "op": "Const", "attr": {"value": {"tensor": {"dtype": "DT_FLOAT", "tensorShape": {"dim": [{"size": "5"}, {"size": "5"}, {"size": "88"}, {"size": "1"}]}}}, "dtype": {"type": "DT_FLOAT"}}}, {"name": "StatefulPartitionedCall/sequential_2_1/nasnet_mobile_1/separable_conv_2_normal_left2_8_1/separable_conv2d/merged_input", "op": "Const", "attr": {"value": {"tensor": {"dtype": "DT_FLOAT", "tensorShape": {"dim": [{"size": "1"}, {"size": "1"}, {"size": "88"}, {"size": "88"}]}}}, "dtype": {"type": "DT_FLOAT"}}}, {"name": "StatefulPartitionedCall/sequential_2_1/nasnet_mobile_1/separable_conv_2_bn_normal_left2_8_1/batchnorm/sub", "op": "Const", "attr": {"value": {"tensor": {"dtype": "DT_FLOAT", "tensorShape": {"dim": [{"size": "88"}]}}}, "dtype": {"type": "DT_FLOAT"}}}, {"name": "StatefulPartitionedCall/sequential_2_1/nasnet_mobile_1/separable_conv_1_normal_right2_8_1/separable_conv2d/ReadVariableOp", "op": "Const", "attr": {"value": {"tensor": {"dtype": "DT_FLOAT", "tensorShape": {"dim": [{"size": "3"}, {"size": "3"}, {"size": "88"}, {"size": "1"}]}}}, "dtype": {"type": "DT_FLOAT"}}}, {"name": "StatefulPartitionedCall/sequential_2_1/nasnet_mobile_1/separable_conv_1_normal_right2_8_1/separable_conv2d/merged_input", "op": "Const", "attr": {"value": {"tensor": {"dtype": "DT_FLOAT", "tensorShape": {"dim": [{"size": "1"}, {"size": "1"}, {"size": "88"}, {"size": "88"}]}}}, "dtype": {"type": "DT_FLOAT"}}}, {"name": "StatefulPartitionedCall/sequential_2_1/nasnet_mobile_1/separable_conv_1_bn_normal_right2_8_1/batchnorm/sub", "op": "Const", "attr": {"value": {"tensor": {"dtype": "DT_FLOAT", "tensorShape": {"dim": [{"size": "88"}]}}}, "dtype": {"type": "DT_FLOAT"}}}, {"name": "StatefulPartitionedCall/sequential_2_1/nasnet_mobile_1/separable_conv_2_normal_right2_8_1/separable_conv2d/ReadVariableOp", "op": "Const", "attr": {"value": {"tensor": {"dtype": "DT_FLOAT", "tensorShape": {"dim": [{"size": "3"}, {"size": "3"}, {"size": "88"}, {"size": "1"}]}}}, "dtype": {"type": "DT_FLOAT"}}}, {"name": "StatefulPartitionedCall/sequential_2_1/nasnet_mobile_1/separable_conv_2_normal_right2_8_1/separable_conv2d/merged_input", "op": "Const", "attr": {"value": {"tensor": {"dtype": "DT_FLOAT", "tensorShape": {"dim": [{"size": "1"}, {"size": "1"}, {"size": "88"}, {"size": "88"}]}}}, "dtype": {"type": "DT_FLOAT"}}}, {"name": "StatefulPartitionedCall/sequential_2_1/nasnet_mobile_1/separable_conv_2_bn_normal_right2_8_1/batchnorm/sub", "op": "Const", "attr": {"value": {"tensor": {"dtype": "DT_FLOAT", "tensorShape": {"dim": [{"size": "88"}]}}}, "dtype": {"type": "DT_FLOAT"}}}, {"name": "StatefulPartitionedCall/sequential_2_1/nasnet_mobile_1/adjust_conv_projection_8_1/convolution/merged_input", "op": "Const", "attr": {"value": {"tensor": {"dtype": "DT_FLOAT", "tensorShape": {"dim": [{"size": "1"}, {"size": "1"}, {"size": "528"}, {"size": "88"}]}}}, "dtype": {"type": "DT_FLOAT"}}}, {"name": "StatefulPartitionedCall/sequential_2_1/nasnet_mobile_1/adjust_bn_8_1/batchnorm/sub", "op": "Const", "attr": {"value": {"tensor": {"dtype": "DT_FLOAT", "tensorShape": {"dim": [{"size": "88"}]}}}, "dtype": {"type": "DT_FLOAT"}}}, {"name": "StatefulPartitionedCall/sequential_2_1/nasnet_mobile_1/separable_conv_1_normal_left5_8_1/separable_conv2d/ReadVariableOp", "op": "Const", "attr": {"value": {"tensor": {"dtype": "DT_FLOAT", "tensorShape": {"dim": [{"size": "3"}, {"size": "3"}, {"size": "88"}, {"size": "1"}]}}}, "dtype": {"type": "DT_FLOAT"}}}, {"name": "StatefulPartitionedCall/sequential_2_1/nasnet_mobile_1/separable_conv_1_normal_left5_8_1/separable_conv2d/merged_input", "op": "Const", "attr": {"value": {"tensor": {"dtype": "DT_FLOAT", "tensorShape": {"dim": [{"size": "1"}, {"size": "1"}, {"size": "88"}, {"size": "88"}]}}}, "dtype": {"type": "DT_FLOAT"}}}, {"name": "StatefulPartitionedCall/sequential_2_1/nasnet_mobile_1/separable_conv_1_bn_normal_left5_8_1/batchnorm/sub", "op": "Const", "attr": {"value": {"tensor": {"dtype": "DT_FLOAT", "tensorShape": {"dim": [{"size": "88"}]}}}, "dtype": {"type": "DT_FLOAT"}}}, {"name": "StatefulPartitionedCall/sequential_2_1/nasnet_mobile_1/separable_conv_2_normal_left5_8_1/separable_conv2d/ReadVariableOp", "op": "Const", "attr": {"value": {"tensor": {"dtype": "DT_FLOAT", "tensorShape": {"dim": [{"size": "3"}, {"size": "3"}, {"size": "88"}, {"size": "1"}]}}}, "dtype": {"type": "DT_FLOAT"}}}, {"name": "StatefulPartitionedCall/sequential_2_1/nasnet_mobile_1/separable_conv_2_normal_left5_8_1/separable_conv2d/merged_input", "op": "Const", "attr": {"value": {"tensor": {"dtype": "DT_FLOAT", "tensorShape": {"dim": [{"size": "1"}, {"size": "1"}, {"size": "88"}, {"size": "88"}]}}}, "dtype": {"type": "DT_FLOAT"}}}, {"name": "StatefulPartitionedCall/sequential_2_1/nasnet_mobile_1/separable_conv_2_bn_normal_left5_8_1/batchnorm/sub", "op": "Const", "attr": {"value": {"tensor": {"dtype": "DT_FLOAT", "tensorShape": {"dim": [{"size": "88"}]}}}, "dtype": {"type": "DT_FLOAT"}}}, {"name": "StatefulPartitionedCall/sequential_2_1/nasnet_mobile_1/separable_conv_1_normal_left1_7_1/separable_conv2d/ReadVariableOp", "op": "Const", "attr": {"value": {"tensor": {"dtype": "DT_FLOAT", "tensorShape": {"dim": [{"size": "5"}, {"size": "5"}, {"size": "88"}, {"size": "1"}]}}}, "dtype": {"type": "DT_FLOAT"}}}, {"name": "StatefulPartitionedCall/sequential_2_1/nasnet_mobile_1/separable_conv_1_normal_left1_7_1/separable_conv2d/merged_input", "op": "Const", "attr": {"value": {"tensor": {"dtype": "DT_FLOAT", "tensorShape": {"dim": [{"size": "1"}, {"size": "1"}, {"size": "88"}, {"size": "88"}]}}}, "dtype": {"type": "DT_FLOAT"}}}, {"name": "StatefulPartitionedCall/sequential_2_1/nasnet_mobile_1/separable_conv_1_bn_normal_left1_7_1/batchnorm/sub", "op": "Const", "attr": {"value": {"tensor": {"dtype": "DT_FLOAT", "tensorShape": {"dim": [{"size": "88"}]}}}, "dtype": {"type": "DT_FLOAT"}}}, {"name": "StatefulPartitionedCall/sequential_2_1/nasnet_mobile_1/separable_conv_2_normal_left1_7_1/separable_conv2d/ReadVariableOp", "op": "Const", "attr": {"value": {"tensor": {"dtype": "DT_FLOAT", "tensorShape": {"dim": [{"size": "5"}, {"size": "5"}, {"size": "88"}, {"size": "1"}]}}}, "dtype": {"type": "DT_FLOAT"}}}, {"name": "StatefulPartitionedCall/sequential_2_1/nasnet_mobile_1/separable_conv_2_normal_left1_7_1/separable_conv2d/merged_input", "op": "Const", "attr": {"value": {"tensor": {"dtype": "DT_FLOAT", "tensorShape": {"dim": [{"size": "1"}, {"size": "1"}, {"size": "88"}, {"size": "88"}]}}}, "dtype": {"type": "DT_FLOAT"}}}, {"name": "StatefulPartitionedCall/sequential_2_1/nasnet_mobile_1/separable_conv_2_bn_normal_left1_7_1/batchnorm/sub", "op": "Const", "attr": {"value": {"tensor": {"dtype": "DT_FLOAT", "tensorShape": {"dim": [{"size": "88"}]}}}, "dtype": {"type": "DT_FLOAT"}}}, {"name": "StatefulPartitionedCall/sequential_2_1/nasnet_mobile_1/separable_conv_1_normal_right1_7_1/separable_conv2d/ReadVariableOp", "op": "Const", "attr": {"value": {"tensor": {"dtype": "DT_FLOAT", "tensorShape": {"dim": [{"size": "3"}, {"size": "3"}, {"size": "88"}, {"size": "1"}]}}}, "dtype": {"type": "DT_FLOAT"}}}, {"name": "StatefulPartitionedCall/sequential_2_1/nasnet_mobile_1/separable_conv_1_normal_right1_7_1/separable_conv2d/merged_input", "op": "Const", "attr": {"value": {"tensor": {"dtype": "DT_FLOAT", "tensorShape": {"dim": [{"size": "1"}, {"size": "1"}, {"size": "88"}, {"size": "88"}]}}}, "dtype": {"type": "DT_FLOAT"}}}, {"name": "StatefulPartitionedCall/sequential_2_1/nasnet_mobile_1/separable_conv_1_bn_normal_right1_7_1/batchnorm/sub", "op": "Const", "attr": {"value": {"tensor": {"dtype": "DT_FLOAT", "tensorShape": {"dim": [{"size": "88"}]}}}, "dtype": {"type": "DT_FLOAT"}}}, {"name": "StatefulPartitionedCall/sequential_2_1/nasnet_mobile_1/separable_conv_2_normal_right1_7_1/separable_conv2d/ReadVariableOp", "op": "Const", "attr": {"value": {"tensor": {"dtype": "DT_FLOAT", "tensorShape": {"dim": [{"size": "3"}, {"size": "3"}, {"size": "88"}, {"size": "1"}]}}}, "dtype": {"type": "DT_FLOAT"}}}, {"name": "StatefulPartitionedCall/sequential_2_1/nasnet_mobile_1/separable_conv_2_normal_right1_7_1/separable_conv2d/merged_input", "op": "Const", "attr": {"value": {"tensor": {"dtype": "DT_FLOAT", "tensorShape": {"dim": [{"size": "1"}, {"size": "1"}, {"size": "88"}, {"size": "88"}]}}}, "dtype": {"type": "DT_FLOAT"}}}, {"name": "StatefulPartitionedCall/sequential_2_1/nasnet_mobile_1/separable_conv_2_bn_normal_right1_7_1/batchnorm/sub", "op": "Const", "attr": {"value": {"tensor": {"dtype": "DT_FLOAT", "tensorShape": {"dim": [{"size": "88"}]}}}, "dtype": {"type": "DT_FLOAT"}}}, {"name": "StatefulPartitionedCall/sequential_2_1/nasnet_mobile_1/separable_conv_1_normal_left2_7_1/separable_conv2d/ReadVariableOp", "op": "Const", "attr": {"value": {"tensor": {"dtype": "DT_FLOAT", "tensorShape": {"dim": [{"size": "5"}, {"size": "5"}, {"size": "88"}, {"size": "1"}]}}}, "dtype": {"type": "DT_FLOAT"}}}, {"name": "StatefulPartitionedCall/sequential_2_1/nasnet_mobile_1/separable_conv_1_normal_left2_7_1/separable_conv2d/merged_input", "op": "Const", "attr": {"value": {"tensor": {"dtype": "DT_FLOAT", "tensorShape": {"dim": [{"size": "1"}, {"size": "1"}, {"size": "88"}, {"size": "88"}]}}}, "dtype": {"type": "DT_FLOAT"}}}, {"name": "StatefulPartitionedCall/sequential_2_1/nasnet_mobile_1/separable_conv_1_bn_normal_left2_7_1/batchnorm/sub", "op": "Const", "attr": {"value": {"tensor": {"dtype": "DT_FLOAT", "tensorShape": {"dim": [{"size": "88"}]}}}, "dtype": {"type": "DT_FLOAT"}}}, {"name": "StatefulPartitionedCall/sequential_2_1/nasnet_mobile_1/separable_conv_2_normal_left2_7_1/separable_conv2d/ReadVariableOp", "op": "Const", "attr": {"value": {"tensor": {"dtype": "DT_FLOAT", "tensorShape": {"dim": [{"size": "5"}, {"size": "5"}, {"size": "88"}, {"size": "1"}]}}}, "dtype": {"type": "DT_FLOAT"}}}, {"name": "StatefulPartitionedCall/sequential_2_1/nasnet_mobile_1/separable_conv_2_normal_left2_7_1/separable_conv2d/merged_input", "op": "Const", "attr": {"value": {"tensor": {"dtype": "DT_FLOAT", "tensorShape": {"dim": [{"size": "1"}, {"size": "1"}, {"size": "88"}, {"size": "88"}]}}}, "dtype": {"type": "DT_FLOAT"}}}, {"name": "StatefulPartitionedCall/sequential_2_1/nasnet_mobile_1/separable_conv_2_bn_normal_left2_7_1/batchnorm/sub", "op": "Const", "attr": {"value": {"tensor": {"dtype": "DT_FLOAT", "tensorShape": {"dim": [{"size": "88"}]}}}, "dtype": {"type": "DT_FLOAT"}}}, {"name": "StatefulPartitionedCall/sequential_2_1/nasnet_mobile_1/separable_conv_1_normal_right2_7_1/separable_conv2d/ReadVariableOp", "op": "Const", "attr": {"value": {"tensor": {"dtype": "DT_FLOAT", "tensorShape": {"dim": [{"size": "3"}, {"size": "3"}, {"size": "88"}, {"size": "1"}]}}}, "dtype": {"type": "DT_FLOAT"}}}, {"name": "StatefulPartitionedCall/sequential_2_1/nasnet_mobile_1/separable_conv_1_normal_right2_7_1/separable_conv2d/merged_input", "op": "Const", "attr": {"value": {"tensor": {"dtype": "DT_FLOAT", "tensorShape": {"dim": [{"size": "1"}, {"size": "1"}, {"size": "88"}, {"size": "88"}]}}}, "dtype": {"type": "DT_FLOAT"}}}, {"name": "StatefulPartitionedCall/sequential_2_1/nasnet_mobile_1/separable_conv_1_bn_normal_right2_7_1/batchnorm/sub", "op": "Const", "attr": {"value": {"tensor": {"dtype": "DT_FLOAT", "tensorShape": {"dim": [{"size": "88"}]}}}, "dtype": {"type": "DT_FLOAT"}}}, {"name": "StatefulPartitionedCall/sequential_2_1/nasnet_mobile_1/separable_conv_2_normal_right2_7_1/separable_conv2d/ReadVariableOp", "op": "Const", "attr": {"value": {"tensor": {"dtype": "DT_FLOAT", "tensorShape": {"dim": [{"size": "3"}, {"size": "3"}, {"size": "88"}, {"size": "1"}]}}}, "dtype": {"type": "DT_FLOAT"}}}, {"name": "StatefulPartitionedCall/sequential_2_1/nasnet_mobile_1/separable_conv_2_normal_right2_7_1/separable_conv2d/merged_input", "op": "Const", "attr": {"value": {"tensor": {"dtype": "DT_FLOAT", "tensorShape": {"dim": [{"size": "1"}, {"size": "1"}, {"size": "88"}, {"size": "88"}]}}}, "dtype": {"type": "DT_FLOAT"}}}, {"name": "StatefulPartitionedCall/sequential_2_1/nasnet_mobile_1/separable_conv_2_bn_normal_right2_7_1/batchnorm/sub", "op": "Const", "attr": {"value": {"tensor": {"dtype": "DT_FLOAT", "tensorShape": {"dim": [{"size": "88"}]}}}, "dtype": {"type": "DT_FLOAT"}}}, {"name": "StatefulPartitionedCall/sequential_2_1/nasnet_mobile_1/adjust_conv_projection_7_1/convolution/merged_input", "op": "Const", "attr": {"value": {"tensor": {"dtype": "DT_FLOAT", "tensorShape": {"dim": [{"size": "1"}, {"size": "1"}, {"size": "528"}, {"size": "88"}]}}}, "dtype": {"type": "DT_FLOAT"}}}, {"name": "StatefulPartitionedCall/sequential_2_1/nasnet_mobile_1/adjust_bn_7_1/batchnorm/sub", "op": "Const", "attr": {"value": {"tensor": {"dtype": "DT_FLOAT", "tensorShape": {"dim": [{"size": "88"}]}}}, "dtype": {"type": "DT_FLOAT"}}}, {"name": "StatefulPartitionedCall/sequential_2_1/nasnet_mobile_1/separable_conv_1_normal_left5_7_1/separable_conv2d/ReadVariableOp", "op": "Const", "attr": {"value": {"tensor": {"dtype": "DT_FLOAT", "tensorShape": {"dim": [{"size": "3"}, {"size": "3"}, {"size": "88"}, {"size": "1"}]}}}, "dtype": {"type": "DT_FLOAT"}}}, {"name": "StatefulPartitionedCall/sequential_2_1/nasnet_mobile_1/separable_conv_1_normal_left5_7_1/separable_conv2d/merged_input", "op": "Const", "attr": {"value": {"tensor": {"dtype": "DT_FLOAT", "tensorShape": {"dim": [{"size": "1"}, {"size": "1"}, {"size": "88"}, {"size": "88"}]}}}, "dtype": {"type": "DT_FLOAT"}}}, {"name": "StatefulPartitionedCall/sequential_2_1/nasnet_mobile_1/separable_conv_1_bn_normal_left5_7_1/batchnorm/sub", "op": "Const", "attr": {"value": {"tensor": {"dtype": "DT_FLOAT", "tensorShape": {"dim": [{"size": "88"}]}}}, "dtype": {"type": "DT_FLOAT"}}}, {"name": "StatefulPartitionedCall/sequential_2_1/nasnet_mobile_1/separable_conv_2_normal_left5_7_1/separable_conv2d/ReadVariableOp", "op": "Const", "attr": {"value": {"tensor": {"dtype": "DT_FLOAT", "tensorShape": {"dim": [{"size": "3"}, {"size": "3"}, {"size": "88"}, {"size": "1"}]}}}, "dtype": {"type": "DT_FLOAT"}}}, {"name": "StatefulPartitionedCall/sequential_2_1/nasnet_mobile_1/separable_conv_2_normal_left5_7_1/separable_conv2d/merged_input", "op": "Const", "attr": {"value": {"tensor": {"dtype": "DT_FLOAT", "tensorShape": {"dim": [{"size": "1"}, {"size": "1"}, {"size": "88"}, {"size": "88"}]}}}, "dtype": {"type": "DT_FLOAT"}}}, {"name": "StatefulPartitionedCall/sequential_2_1/nasnet_mobile_1/separable_conv_2_bn_normal_left5_7_1/batchnorm/sub", "op": "Const", "attr": {"value": {"tensor": {"dtype": "DT_FLOAT", "tensorShape": {"dim": [{"size": "88"}]}}}, "dtype": {"type": "DT_FLOAT"}}}, {"name": "StatefulPartitionedCall/sequential_2_1/nasnet_mobile_1/separable_conv_1_normal_left1_6_1/separable_conv2d/ReadVariableOp", "op": "Const", "attr": {"value": {"tensor": {"dtype": "DT_FLOAT", "tensorShape": {"dim": [{"size": "5"}, {"size": "5"}, {"size": "88"}, {"size": "1"}]}}}, "dtype": {"type": "DT_FLOAT"}}}, {"name": "StatefulPartitionedCall/sequential_2_1/nasnet_mobile_1/separable_conv_1_normal_left1_6_1/separable_conv2d/merged_input", "op": "Const", "attr": {"value": {"tensor": {"dtype": "DT_FLOAT", "tensorShape": {"dim": [{"size": "1"}, {"size": "1"}, {"size": "88"}, {"size": "88"}]}}}, "dtype": {"type": "DT_FLOAT"}}}, {"name": "StatefulPartitionedCall/sequential_2_1/nasnet_mobile_1/separable_conv_1_bn_normal_left1_6_1/batchnorm/sub", "op": "Const", "attr": {"value": {"tensor": {"dtype": "DT_FLOAT", "tensorShape": {"dim": [{"size": "88"}]}}}, "dtype": {"type": "DT_FLOAT"}}}, {"name": "StatefulPartitionedCall/sequential_2_1/nasnet_mobile_1/separable_conv_2_normal_left1_6_1/separable_conv2d/ReadVariableOp", "op": "Const", "attr": {"value": {"tensor": {"dtype": "DT_FLOAT", "tensorShape": {"dim": [{"size": "5"}, {"size": "5"}, {"size": "88"}, {"size": "1"}]}}}, "dtype": {"type": "DT_FLOAT"}}}, {"name": "StatefulPartitionedCall/sequential_2_1/nasnet_mobile_1/separable_conv_2_normal_left1_6_1/separable_conv2d/merged_input", "op": "Const", "attr": {"value": {"tensor": {"dtype": "DT_FLOAT", "tensorShape": {"dim": [{"size": "1"}, {"size": "1"}, {"size": "88"}, {"size": "88"}]}}}, "dtype": {"type": "DT_FLOAT"}}}, {"name": "StatefulPartitionedCall/sequential_2_1/nasnet_mobile_1/separable_conv_2_bn_normal_left1_6_1/batchnorm/sub", "op": "Const", "attr": {"value": {"tensor": {"dtype": "DT_FLOAT", "tensorShape": {"dim": [{"size": "88"}]}}}, "dtype": {"type": "DT_FLOAT"}}}, {"name": "StatefulPartitionedCall/sequential_2_1/nasnet_mobile_1/separable_conv_1_normal_right1_6_1/separable_conv2d/ReadVariableOp", "op": "Const", "attr": {"value": {"tensor": {"dtype": "DT_FLOAT", "tensorShape": {"dim": [{"size": "3"}, {"size": "3"}, {"size": "88"}, {"size": "1"}]}}}, "dtype": {"type": "DT_FLOAT"}}}, {"name": "StatefulPartitionedCall/sequential_2_1/nasnet_mobile_1/separable_conv_1_normal_right1_6_1/separable_conv2d/merged_input", "op": "Const", "attr": {"value": {"tensor": {"dtype": "DT_FLOAT", "tensorShape": {"dim": [{"size": "1"}, {"size": "1"}, {"size": "88"}, {"size": "88"}]}}}, "dtype": {"type": "DT_FLOAT"}}}, {"name": "StatefulPartitionedCall/sequential_2_1/nasnet_mobile_1/separable_conv_1_bn_normal_right1_6_1/batchnorm/sub", "op": "Const", "attr": {"value": {"tensor": {"dtype": "DT_FLOAT", "tensorShape": {"dim": [{"size": "88"}]}}}, "dtype": {"type": "DT_FLOAT"}}}, {"name": "StatefulPartitionedCall/sequential_2_1/nasnet_mobile_1/separable_conv_2_normal_right1_6_1/separable_conv2d/ReadVariableOp", "op": "Const", "attr": {"value": {"tensor": {"dtype": "DT_FLOAT", "tensorShape": {"dim": [{"size": "3"}, {"size": "3"}, {"size": "88"}, {"size": "1"}]}}}, "dtype": {"type": "DT_FLOAT"}}}, {"name": "StatefulPartitionedCall/sequential_2_1/nasnet_mobile_1/separable_conv_2_normal_right1_6_1/separable_conv2d/merged_input", "op": "Const", "attr": {"value": {"tensor": {"dtype": "DT_FLOAT", "tensorShape": {"dim": [{"size": "1"}, {"size": "1"}, {"size": "88"}, {"size": "88"}]}}}, "dtype": {"type": "DT_FLOAT"}}}, {"name": "StatefulPartitionedCall/sequential_2_1/nasnet_mobile_1/separable_conv_2_bn_normal_right1_6_1/batchnorm/sub", "op": "Const", "attr": {"value": {"tensor": {"dtype": "DT_FLOAT", "tensorShape": {"dim": [{"size": "88"}]}}}, "dtype": {"type": "DT_FLOAT"}}}, {"name": "StatefulPartitionedCall/sequential_2_1/nasnet_mobile_1/separable_conv_1_normal_left2_6_1/separable_conv2d/ReadVariableOp", "op": "Const", "attr": {"value": {"tensor": {"dtype": "DT_FLOAT", "tensorShape": {"dim": [{"size": "5"}, {"size": "5"}, {"size": "88"}, {"size": "1"}]}}}, "dtype": {"type": "DT_FLOAT"}}}, {"name": "StatefulPartitionedCall/sequential_2_1/nasnet_mobile_1/separable_conv_1_normal_left2_6_1/separable_conv2d/merged_input", "op": "Const", "attr": {"value": {"tensor": {"dtype": "DT_FLOAT", "tensorShape": {"dim": [{"size": "1"}, {"size": "1"}, {"size": "88"}, {"size": "88"}]}}}, "dtype": {"type": "DT_FLOAT"}}}, {"name": "StatefulPartitionedCall/sequential_2_1/nasnet_mobile_1/separable_conv_1_bn_normal_left2_6_1/batchnorm/sub", "op": "Const", "attr": {"value": {"tensor": {"dtype": "DT_FLOAT", "tensorShape": {"dim": [{"size": "88"}]}}}, "dtype": {"type": "DT_FLOAT"}}}, {"name": "StatefulPartitionedCall/sequential_2_1/nasnet_mobile_1/separable_conv_2_normal_left2_6_1/separable_conv2d/ReadVariableOp", "op": "Const", "attr": {"value": {"tensor": {"dtype": "DT_FLOAT", "tensorShape": {"dim": [{"size": "5"}, {"size": "5"}, {"size": "88"}, {"size": "1"}]}}}, "dtype": {"type": "DT_FLOAT"}}}, {"name": "StatefulPartitionedCall/sequential_2_1/nasnet_mobile_1/separable_conv_2_normal_left2_6_1/separable_conv2d/merged_input", "op": "Const", "attr": {"value": {"tensor": {"dtype": "DT_FLOAT", "tensorShape": {"dim": [{"size": "1"}, {"size": "1"}, {"size": "88"}, {"size": "88"}]}}}, "dtype": {"type": "DT_FLOAT"}}}, {"name": "StatefulPartitionedCall/sequential_2_1/nasnet_mobile_1/separable_conv_2_bn_normal_left2_6_1/batchnorm/sub", "op": "Const", "attr": {"value": {"tensor": {"dtype": "DT_FLOAT", "tensorShape": {"dim": [{"size": "88"}]}}}, "dtype": {"type": "DT_FLOAT"}}}, {"name": "StatefulPartitionedCall/sequential_2_1/nasnet_mobile_1/separable_conv_1_normal_right2_6_1/separable_conv2d/ReadVariableOp", "op": "Const", "attr": {"value": {"tensor": {"dtype": "DT_FLOAT", "tensorShape": {"dim": [{"size": "3"}, {"size": "3"}, {"size": "88"}, {"size": "1"}]}}}, "dtype": {"type": "DT_FLOAT"}}}, {"name": "StatefulPartitionedCall/sequential_2_1/nasnet_mobile_1/separable_conv_1_normal_right2_6_1/separable_conv2d/merged_input", "op": "Const", "attr": {"value": {"tensor": {"dtype": "DT_FLOAT", "tensorShape": {"dim": [{"size": "1"}, {"size": "1"}, {"size": "88"}, {"size": "88"}]}}}, "dtype": {"type": "DT_FLOAT"}}}, {"name": "StatefulPartitionedCall/sequential_2_1/nasnet_mobile_1/separable_conv_1_bn_normal_right2_6_1/batchnorm/sub", "op": "Const", "attr": {"value": {"tensor": {"dtype": "DT_FLOAT", "tensorShape": {"dim": [{"size": "88"}]}}}, "dtype": {"type": "DT_FLOAT"}}}, {"name": "StatefulPartitionedCall/sequential_2_1/nasnet_mobile_1/separable_conv_2_normal_right2_6_1/separable_conv2d/ReadVariableOp", "op": "Const", "attr": {"value": {"tensor": {"dtype": "DT_FLOAT", "tensorShape": {"dim": [{"size": "3"}, {"size": "3"}, {"size": "88"}, {"size": "1"}]}}}, "dtype": {"type": "DT_FLOAT"}}}, {"name": "StatefulPartitionedCall/sequential_2_1/nasnet_mobile_1/separable_conv_2_normal_right2_6_1/separable_conv2d/merged_input", "op": "Const", "attr": {"value": {"tensor": {"dtype": "DT_FLOAT", "tensorShape": {"dim": [{"size": "1"}, {"size": "1"}, {"size": "88"}, {"size": "88"}]}}}, "dtype": {"type": "DT_FLOAT"}}}, {"name": "StatefulPartitionedCall/sequential_2_1/nasnet_mobile_1/separable_conv_2_bn_normal_right2_6_1/batchnorm/sub", "op": "Const", "attr": {"value": {"tensor": {"dtype": "DT_FLOAT", "tensorShape": {"dim": [{"size": "88"}]}}}, "dtype": {"type": "DT_FLOAT"}}}, {"name": "StatefulPartitionedCall/sequential_2_1/nasnet_mobile_1/adjust_conv_projection_6_1/convolution/merged_input", "op": "Const", "attr": {"value": {"tensor": {"dtype": "DT_FLOAT", "tensorShape": {"dim": [{"size": "1"}, {"size": "1"}, {"size": "352"}, {"size": "88"}]}}}, "dtype": {"type": "DT_FLOAT"}}}, {"name": "StatefulPartitionedCall/sequential_2_1/nasnet_mobile_1/adjust_bn_6_1/batchnorm/sub", "op": "Const", "attr": {"value": {"tensor": {"dtype": "DT_FLOAT", "tensorShape": {"dim": [{"size": "88"}]}}}, "dtype": {"type": "DT_FLOAT"}}}, {"name": "StatefulPartitionedCall/sequential_2_1/nasnet_mobile_1/separable_conv_1_normal_left5_6_1/separable_conv2d/ReadVariableOp", "op": "Const", "attr": {"value": {"tensor": {"dtype": "DT_FLOAT", "tensorShape": {"dim": [{"size": "3"}, {"size": "3"}, {"size": "88"}, {"size": "1"}]}}}, "dtype": {"type": "DT_FLOAT"}}}, {"name": "StatefulPartitionedCall/sequential_2_1/nasnet_mobile_1/separable_conv_1_normal_left5_6_1/separable_conv2d/merged_input", "op": "Const", "attr": {"value": {"tensor": {"dtype": "DT_FLOAT", "tensorShape": {"dim": [{"size": "1"}, {"size": "1"}, {"size": "88"}, {"size": "88"}]}}}, "dtype": {"type": "DT_FLOAT"}}}, {"name": "StatefulPartitionedCall/sequential_2_1/nasnet_mobile_1/separable_conv_1_bn_normal_left5_6_1/batchnorm/sub", "op": "Const", "attr": {"value": {"tensor": {"dtype": "DT_FLOAT", "tensorShape": {"dim": [{"size": "88"}]}}}, "dtype": {"type": "DT_FLOAT"}}}, {"name": "StatefulPartitionedCall/sequential_2_1/nasnet_mobile_1/separable_conv_2_normal_left5_6_1/separable_conv2d/ReadVariableOp", "op": "Const", "attr": {"value": {"tensor": {"dtype": "DT_FLOAT", "tensorShape": {"dim": [{"size": "3"}, {"size": "3"}, {"size": "88"}, {"size": "1"}]}}}, "dtype": {"type": "DT_FLOAT"}}}, {"name": "StatefulPartitionedCall/sequential_2_1/nasnet_mobile_1/separable_conv_2_normal_left5_6_1/separable_conv2d/merged_input", "op": "Const", "attr": {"value": {"tensor": {"dtype": "DT_FLOAT", "tensorShape": {"dim": [{"size": "1"}, {"size": "1"}, {"size": "88"}, {"size": "88"}]}}}, "dtype": {"type": "DT_FLOAT"}}}, {"name": "StatefulPartitionedCall/sequential_2_1/nasnet_mobile_1/separable_conv_2_bn_normal_left5_6_1/batchnorm/sub", "op": "Const", "attr": {"value": {"tensor": {"dtype": "DT_FLOAT", "tensorShape": {"dim": [{"size": "88"}]}}}, "dtype": {"type": "DT_FLOAT"}}}, {"name": "StatefulPartitionedCall/sequential_2_1/nasnet_mobile_1/separable_conv_1_normal_left1_5_1/separable_conv2d/ReadVariableOp", "op": "Const", "attr": {"value": {"tensor": {"dtype": "DT_FLOAT", "tensorShape": {"dim": [{"size": "5"}, {"size": "5"}, {"size": "88"}, {"size": "1"}]}}}, "dtype": {"type": "DT_FLOAT"}}}, {"name": "StatefulPartitionedCall/sequential_2_1/nasnet_mobile_1/separable_conv_1_normal_left1_5_1/separable_conv2d/merged_input", "op": "Const", "attr": {"value": {"tensor": {"dtype": "DT_FLOAT", "tensorShape": {"dim": [{"size": "1"}, {"size": "1"}, {"size": "88"}, {"size": "88"}]}}}, "dtype": {"type": "DT_FLOAT"}}}, {"name": "StatefulPartitionedCall/sequential_2_1/nasnet_mobile_1/separable_conv_1_bn_normal_left1_5_1/batchnorm/sub", "op": "Const", "attr": {"value": {"tensor": {"dtype": "DT_FLOAT", "tensorShape": {"dim": [{"size": "88"}]}}}, "dtype": {"type": "DT_FLOAT"}}}, {"name": "StatefulPartitionedCall/sequential_2_1/nasnet_mobile_1/separable_conv_2_normal_left1_5_1/separable_conv2d/ReadVariableOp", "op": "Const", "attr": {"value": {"tensor": {"dtype": "DT_FLOAT", "tensorShape": {"dim": [{"size": "5"}, {"size": "5"}, {"size": "88"}, {"size": "1"}]}}}, "dtype": {"type": "DT_FLOAT"}}}, {"name": "StatefulPartitionedCall/sequential_2_1/nasnet_mobile_1/separable_conv_2_normal_left1_5_1/separable_conv2d/merged_input", "op": "Const", "attr": {"value": {"tensor": {"dtype": "DT_FLOAT", "tensorShape": {"dim": [{"size": "1"}, {"size": "1"}, {"size": "88"}, {"size": "88"}]}}}, "dtype": {"type": "DT_FLOAT"}}}, {"name": "StatefulPartitionedCall/sequential_2_1/nasnet_mobile_1/separable_conv_2_bn_normal_left1_5_1/batchnorm/sub", "op": "Const", "attr": {"value": {"tensor": {"dtype": "DT_FLOAT", "tensorShape": {"dim": [{"size": "88"}]}}}, "dtype": {"type": "DT_FLOAT"}}}, {"name": "StatefulPartitionedCall/sequential_2_1/nasnet_mobile_1/separable_conv_1_normal_right1_5_1/separable_conv2d/ReadVariableOp", "op": "Const", "attr": {"value": {"tensor": {"dtype": "DT_FLOAT", "tensorShape": {"dim": [{"size": "3"}, {"size": "3"}, {"size": "88"}, {"size": "1"}]}}}, "dtype": {"type": "DT_FLOAT"}}}, {"name": "StatefulPartitionedCall/sequential_2_1/nasnet_mobile_1/separable_conv_1_normal_right1_5_1/separable_conv2d/merged_input", "op": "Const", "attr": {"value": {"tensor": {"dtype": "DT_FLOAT", "tensorShape": {"dim": [{"size": "1"}, {"size": "1"}, {"size": "88"}, {"size": "88"}]}}}, "dtype": {"type": "DT_FLOAT"}}}, {"name": "StatefulPartitionedCall/sequential_2_1/nasnet_mobile_1/separable_conv_1_bn_normal_right1_5_1/batchnorm/sub", "op": "Const", "attr": {"value": {"tensor": {"dtype": "DT_FLOAT", "tensorShape": {"dim": [{"size": "88"}]}}}, "dtype": {"type": "DT_FLOAT"}}}, {"name": "StatefulPartitionedCall/sequential_2_1/nasnet_mobile_1/separable_conv_2_normal_right1_5_1/separable_conv2d/ReadVariableOp", "op": "Const", "attr": {"value": {"tensor": {"dtype": "DT_FLOAT", "tensorShape": {"dim": [{"size": "3"}, {"size": "3"}, {"size": "88"}, {"size": "1"}]}}}, "dtype": {"type": "DT_FLOAT"}}}, {"name": "StatefulPartitionedCall/sequential_2_1/nasnet_mobile_1/separable_conv_2_normal_right1_5_1/separable_conv2d/merged_input", "op": "Const", "attr": {"value": {"tensor": {"dtype": "DT_FLOAT", "tensorShape": {"dim": [{"size": "1"}, {"size": "1"}, {"size": "88"}, {"size": "88"}]}}}, "dtype": {"type": "DT_FLOAT"}}}, {"name": "StatefulPartitionedCall/sequential_2_1/nasnet_mobile_1/separable_conv_2_bn_normal_right1_5_1/batchnorm/sub", "op": "Const", "attr": {"value": {"tensor": {"dtype": "DT_FLOAT", "tensorShape": {"dim": [{"size": "88"}]}}}, "dtype": {"type": "DT_FLOAT"}}}, {"name": "StatefulPartitionedCall/sequential_2_1/nasnet_mobile_1/separable_conv_1_normal_left2_5_1/separable_conv2d/ReadVariableOp", "op": "Const", "attr": {"value": {"tensor": {"dtype": "DT_FLOAT", "tensorShape": {"dim": [{"size": "5"}, {"size": "5"}, {"size": "88"}, {"size": "1"}]}}}, "dtype": {"type": "DT_FLOAT"}}}, {"name": "StatefulPartitionedCall/sequential_2_1/nasnet_mobile_1/separable_conv_1_normal_left2_5_1/separable_conv2d/merged_input", "op": "Const", "attr": {"value": {"tensor": {"dtype": "DT_FLOAT", "tensorShape": {"dim": [{"size": "1"}, {"size": "1"}, {"size": "88"}, {"size": "88"}]}}}, "dtype": {"type": "DT_FLOAT"}}}, {"name": "StatefulPartitionedCall/sequential_2_1/nasnet_mobile_1/separable_conv_1_bn_normal_left2_5_1/batchnorm/sub", "op": "Const", "attr": {"value": {"tensor": {"dtype": "DT_FLOAT", "tensorShape": {"dim": [{"size": "88"}]}}}, "dtype": {"type": "DT_FLOAT"}}}, {"name": "StatefulPartitionedCall/sequential_2_1/nasnet_mobile_1/separable_conv_2_normal_left2_5_1/separable_conv2d/ReadVariableOp", "op": "Const", "attr": {"value": {"tensor": {"dtype": "DT_FLOAT", "tensorShape": {"dim": [{"size": "5"}, {"size": "5"}, {"size": "88"}, {"size": "1"}]}}}, "dtype": {"type": "DT_FLOAT"}}}, {"name": "StatefulPartitionedCall/sequential_2_1/nasnet_mobile_1/separable_conv_2_normal_left2_5_1/separable_conv2d/merged_input", "op": "Const", "attr": {"value": {"tensor": {"dtype": "DT_FLOAT", "tensorShape": {"dim": [{"size": "1"}, {"size": "1"}, {"size": "88"}, {"size": "88"}]}}}, "dtype": {"type": "DT_FLOAT"}}}, {"name": "StatefulPartitionedCall/sequential_2_1/nasnet_mobile_1/separable_conv_2_bn_normal_left2_5_1/batchnorm/sub", "op": "Const", "attr": {"value": {"tensor": {"dtype": "DT_FLOAT", "tensorShape": {"dim": [{"size": "88"}]}}}, "dtype": {"type": "DT_FLOAT"}}}, {"name": "StatefulPartitionedCall/sequential_2_1/nasnet_mobile_1/separable_conv_1_normal_right2_5_1/separable_conv2d/ReadVariableOp", "op": "Const", "attr": {"value": {"tensor": {"dtype": "DT_FLOAT", "tensorShape": {"dim": [{"size": "3"}, {"size": "3"}, {"size": "88"}, {"size": "1"}]}}}, "dtype": {"type": "DT_FLOAT"}}}, {"name": "StatefulPartitionedCall/sequential_2_1/nasnet_mobile_1/separable_conv_1_normal_right2_5_1/separable_conv2d/merged_input", "op": "Const", "attr": {"value": {"tensor": {"dtype": "DT_FLOAT", "tensorShape": {"dim": [{"size": "1"}, {"size": "1"}, {"size": "88"}, {"size": "88"}]}}}, "dtype": {"type": "DT_FLOAT"}}}, {"name": "StatefulPartitionedCall/sequential_2_1/nasnet_mobile_1/separable_conv_1_bn_normal_right2_5_1/batchnorm/sub", "op": "Const", "attr": {"value": {"tensor": {"dtype": "DT_FLOAT", "tensorShape": {"dim": [{"size": "88"}]}}}, "dtype": {"type": "DT_FLOAT"}}}, {"name": "StatefulPartitionedCall/sequential_2_1/nasnet_mobile_1/separable_conv_2_normal_right2_5_1/separable_conv2d/ReadVariableOp", "op": "Const", "attr": {"value": {"tensor": {"dtype": "DT_FLOAT", "tensorShape": {"dim": [{"size": "3"}, {"size": "3"}, {"size": "88"}, {"size": "1"}]}}}, "dtype": {"type": "DT_FLOAT"}}}, {"name": "StatefulPartitionedCall/sequential_2_1/nasnet_mobile_1/separable_conv_2_normal_right2_5_1/separable_conv2d/merged_input", "op": "Const", "attr": {"value": {"tensor": {"dtype": "DT_FLOAT", "tensorShape": {"dim": [{"size": "1"}, {"size": "1"}, {"size": "88"}, {"size": "88"}]}}}, "dtype": {"type": "DT_FLOAT"}}}, {"name": "StatefulPartitionedCall/sequential_2_1/nasnet_mobile_1/separable_conv_2_bn_normal_right2_5_1/batchnorm/sub", "op": "Const", "attr": {"value": {"tensor": {"dtype": "DT_FLOAT", "tensorShape": {"dim": [{"size": "88"}]}}}, "dtype": {"type": "DT_FLOAT"}}}, {"name": "StatefulPartitionedCall/sequential_2_1/nasnet_mobile_1/adjust_conv_1_5_1/convolution/ReadVariableOp", "op": "Const", "attr": {"value": {"tensor": {"dtype": "DT_FLOAT", "tensorShape": {"dim": [{"size": "1"}, {"size": "1"}, {"size": "264"}, {"size": "44"}]}}}, "dtype": {"type": "DT_FLOAT"}}}, {"name": "StatefulPartitionedCall/sequential_2_1/nasnet_mobile_1/zero_padding2d_2_1/Const", "op": "Const", "attr": {"value": {"tensor": {"dtype": "DT_INT32", "tensorShape": {"dim": [{"size": "4"}, {"size": "2"}]}}}, "dtype": {"type": "DT_INT32"}}}, {"name": "StatefulPartitionedCall/sequential_2_1/nasnet_mobile_1/cropping2d_2_1/strided_slice/stack", "op": "Const", "attr": {"value": {"tensor": {"dtype": "DT_INT32", "tensorShape": {"dim": [{"size": "4"}]}}}, "dtype": {"type": "DT_INT32"}}}, {"name": "StatefulPartitionedCall/sequential_2_1/nasnet_mobile_1/cropping2d_2_1/strided_slice/stack_1", "op": "Const", "attr": {"value": {"tensor": {"dtype": "DT_INT32", "tensorShape": {"dim": [{"size": "4"}]}}}, "dtype": {"type": "DT_INT32"}}}, {"name": "StatefulPartitionedCall/sequential_2_1/nasnet_mobile_1/cropping2d_2_1/strided_slice/stack_2", "op": "Const", "attr": {"value": {"tensor": {"dtype": "DT_INT32", "tensorShape": {"dim": [{"size": "4"}]}}}, "dtype": {"type": "DT_INT32"}}}, {"name": "StatefulPartitionedCall/sequential_2_1/nasnet_mobile_1/adjust_conv_2_5_1/convolution/ReadVariableOp", "op": "Const", "attr": {"value": {"tensor": {"dtype": "DT_FLOAT", "tensorShape": {"dim": [{"size": "1"}, {"size": "1"}, {"size": "264"}, {"size": "44"}]}}}, "dtype": {"type": "DT_FLOAT"}}}, {"name": "StatefulPartitionedCall/sequential_2_1/nasnet_mobile_1/concatenate_2_1/concat/axis", "op": "Const", "attr": {"value": {"tensor": {"dtype": "DT_INT32", "tensorShape": {}}}, "dtype": {"type": "DT_INT32"}}}, {"name": "StatefulPartitionedCall/sequential_2_1/nasnet_mobile_1/adjust_bn_5_1/batchnorm/mul", "op": "Const", "attr": {"value": {"tensor": {"dtype": "DT_FLOAT", "tensorShape": {"dim": [{"size": "88"}]}}}, "dtype": {"type": "DT_FLOAT"}}}, {"name": "StatefulPartitionedCall/sequential_2_1/nasnet_mobile_1/adjust_bn_5_1/batchnorm/sub", "op": "Const", "attr": {"value": {"tensor": {"dtype": "DT_FLOAT", "tensorShape": {"dim": [{"size": "88"}]}}}, "dtype": {"type": "DT_FLOAT"}}}, {"name": "StatefulPartitionedCall/sequential_2_1/nasnet_mobile_1/separable_conv_1_normal_left5_5_1/separable_conv2d/ReadVariableOp", "op": "Const", "attr": {"value": {"tensor": {"dtype": "DT_FLOAT", "tensorShape": {"dim": [{"size": "3"}, {"size": "3"}, {"size": "88"}, {"size": "1"}]}}}, "dtype": {"type": "DT_FLOAT"}}}, {"name": "StatefulPartitionedCall/sequential_2_1/nasnet_mobile_1/separable_conv_1_normal_left5_5_1/separable_conv2d/merged_input", "op": "Const", "attr": {"value": {"tensor": {"dtype": "DT_FLOAT", "tensorShape": {"dim": [{"size": "1"}, {"size": "1"}, {"size": "88"}, {"size": "88"}]}}}, "dtype": {"type": "DT_FLOAT"}}}, {"name": "StatefulPartitionedCall/sequential_2_1/nasnet_mobile_1/separable_conv_1_bn_normal_left5_5_1/batchnorm/sub", "op": "Const", "attr": {"value": {"tensor": {"dtype": "DT_FLOAT", "tensorShape": {"dim": [{"size": "88"}]}}}, "dtype": {"type": "DT_FLOAT"}}}, {"name": "StatefulPartitionedCall/sequential_2_1/nasnet_mobile_1/separable_conv_2_normal_left5_5_1/separable_conv2d/ReadVariableOp", "op": "Const", "attr": {"value": {"tensor": {"dtype": "DT_FLOAT", "tensorShape": {"dim": [{"size": "3"}, {"size": "3"}, {"size": "88"}, {"size": "1"}]}}}, "dtype": {"type": "DT_FLOAT"}}}, {"name": "StatefulPartitionedCall/sequential_2_1/nasnet_mobile_1/separable_conv_2_normal_left5_5_1/separable_conv2d/merged_input", "op": "Const", "attr": {"value": {"tensor": {"dtype": "DT_FLOAT", "tensorShape": {"dim": [{"size": "1"}, {"size": "1"}, {"size": "88"}, {"size": "88"}]}}}, "dtype": {"type": "DT_FLOAT"}}}, {"name": "StatefulPartitionedCall/sequential_2_1/nasnet_mobile_1/separable_conv_2_bn_normal_left5_5_1/batchnorm/sub", "op": "Const", "attr": {"value": {"tensor": {"dtype": "DT_FLOAT", "tensorShape": {"dim": [{"size": "88"}]}}}, "dtype": {"type": "DT_FLOAT"}}}, {"name": "StatefulPartitionedCall/sequential_2_1/nasnet_mobile_1/separable_conv_1_pad_reduction_right3_reduce_4_1/Const", "op": "Const", "attr": {"value": {"tensor": {"dtype": "DT_INT32", "tensorShape": {"dim": [{"size": "4"}, {"size": "2"}]}}}, "dtype": {"type": "DT_INT32"}}}, {"name": "StatefulPartitionedCall/sequential_2_1/nasnet_mobile_1/separable_conv_1_reduction_right3_reduce_4_1/separable_conv2d/ReadVariableOp", "op": "Const", "attr": {"value": {"tensor": {"dtype": "DT_FLOAT", "tensorShape": {"dim": [{"size": "5"}, {"size": "5"}, {"size": "88"}, {"size": "1"}]}}}, "dtype": {"type": "DT_FLOAT"}}}, {"name": "StatefulPartitionedCall/sequential_2_1/nasnet_mobile_1/separable_conv_1_reduction_right3_reduce_4_1/separable_conv2d/merged_input", "op": "Const", "attr": {"value": {"tensor": {"dtype": "DT_FLOAT", "tensorShape": {"dim": [{"size": "1"}, {"size": "1"}, {"size": "88"}, {"size": "88"}]}}}, "dtype": {"type": "DT_FLOAT"}}}, {"name": "StatefulPartitionedCall/sequential_2_1/nasnet_mobile_1/separable_conv_1_bn_reduction_right3_reduce_4_1/batchnorm/sub", "op": "Const", "attr": {"value": {"tensor": {"dtype": "DT_FLOAT", "tensorShape": {"dim": [{"size": "88"}]}}}, "dtype": {"type": "DT_FLOAT"}}}, {"name": "StatefulPartitionedCall/sequential_2_1/nasnet_mobile_1/separable_conv_2_reduction_right3_reduce_4_1/separable_conv2d/ReadVariableOp", "op": "Const", "attr": {"value": {"tensor": {"dtype": "DT_FLOAT", "tensorShape": {"dim": [{"size": "5"}, {"size": "5"}, {"size": "88"}, {"size": "1"}]}}}, "dtype": {"type": "DT_FLOAT"}}}, {"name": "StatefulPartitionedCall/sequential_2_1/nasnet_mobile_1/separable_conv_2_reduction_right3_reduce_4_1/separable_conv2d/merged_input", "op": "Const", "attr": {"value": {"tensor": {"dtype": "DT_FLOAT", "tensorShape": {"dim": [{"size": "1"}, {"size": "1"}, {"size": "88"}, {"size": "88"}]}}}, "dtype": {"type": "DT_FLOAT"}}}, {"name": "StatefulPartitionedCall/sequential_2_1/nasnet_mobile_1/separable_conv_2_bn_reduction_right3_reduce_4_1/batchnorm/sub", "op": "Const", "attr": {"value": {"tensor": {"dtype": "DT_FLOAT", "tensorShape": {"dim": [{"size": "88"}]}}}, "dtype": {"type": "DT_FLOAT"}}}, {"name": "StatefulPartitionedCall/sequential_2_1/nasnet_mobile_1/separable_conv_1_pad_reduction_right2_reduce_4_1/Const", "op": "Const", "attr": {"value": {"tensor": {"dtype": "DT_INT32", "tensorShape": {"dim": [{"size": "4"}, {"size": "2"}]}}}, "dtype": {"type": "DT_INT32"}}}, {"name": "StatefulPartitionedCall/sequential_2_1/nasnet_mobile_1/separable_conv_1_reduction_right2_reduce_4_1/separable_conv2d/ReadVariableOp", "op": "Const", "attr": {"value": {"tensor": {"dtype": "DT_FLOAT", "tensorShape": {"dim": [{"size": "7"}, {"size": "7"}, {"size": "88"}, {"size": "1"}]}}}, "dtype": {"type": "DT_FLOAT"}}}, {"name": "StatefulPartitionedCall/sequential_2_1/nasnet_mobile_1/separable_conv_1_reduction_right2_reduce_4_1/separable_conv2d/merged_input", "op": "Const", "attr": {"value": {"tensor": {"dtype": "DT_FLOAT", "tensorShape": {"dim": [{"size": "1"}, {"size": "1"}, {"size": "88"}, {"size": "88"}]}}}, "dtype": {"type": "DT_FLOAT"}}}, {"name": "StatefulPartitionedCall/sequential_2_1/nasnet_mobile_1/separable_conv_1_bn_reduction_right2_reduce_4_1/batchnorm/sub", "op": "Const", "attr": {"value": {"tensor": {"dtype": "DT_FLOAT", "tensorShape": {"dim": [{"size": "88"}]}}}, "dtype": {"type": "DT_FLOAT"}}}, {"name": "StatefulPartitionedCall/sequential_2_1/nasnet_mobile_1/separable_conv_2_reduction_right2_reduce_4_1/separable_conv2d/ReadVariableOp", "op": "Const", "attr": {"value": {"tensor": {"dtype": "DT_FLOAT", "tensorShape": {"dim": [{"size": "7"}, {"size": "7"}, {"size": "88"}, {"size": "1"}]}}}, "dtype": {"type": "DT_FLOAT"}}}, {"name": "StatefulPartitionedCall/sequential_2_1/nasnet_mobile_1/separable_conv_2_reduction_right2_reduce_4_1/separable_conv2d/merged_input", "op": "Const", "attr": {"value": {"tensor": {"dtype": "DT_FLOAT", "tensorShape": {"dim": [{"size": "1"}, {"size": "1"}, {"size": "88"}, {"size": "88"}]}}}, "dtype": {"type": "DT_FLOAT"}}}, {"name": "StatefulPartitionedCall/sequential_2_1/nasnet_mobile_1/separable_conv_2_bn_reduction_right2_reduce_4_1/batchnorm/sub", "op": "Const", "attr": {"value": {"tensor": {"dtype": "DT_FLOAT", "tensorShape": {"dim": [{"size": "88"}]}}}, "dtype": {"type": "DT_FLOAT"}}}, {"name": "StatefulPartitionedCall/sequential_2_1/nasnet_mobile_1/separable_conv_1_pad_reduction_left1_reduce_4_1/Const", "op": "Const", "attr": {"value": {"tensor": {"dtype": "DT_INT32", "tensorShape": {"dim": [{"size": "4"}, {"size": "2"}]}}}, "dtype": {"type": "DT_INT32"}}}, {"name": "StatefulPartitionedCall/sequential_2_1/nasnet_mobile_1/separable_conv_1_reduction_left1_reduce_4_1/separable_conv2d/ReadVariableOp", "op": "Const", "attr": {"value": {"tensor": {"dtype": "DT_FLOAT", "tensorShape": {"dim": [{"size": "5"}, {"size": "5"}, {"size": "88"}, {"size": "1"}]}}}, "dtype": {"type": "DT_FLOAT"}}}, {"name": "StatefulPartitionedCall/sequential_2_1/nasnet_mobile_1/separable_conv_1_reduction_left1_reduce_4_1/separable_conv2d/merged_input", "op": "Const", "attr": {"value": {"tensor": {"dtype": "DT_FLOAT", "tensorShape": {"dim": [{"size": "1"}, {"size": "1"}, {"size": "88"}, {"size": "88"}]}}}, "dtype": {"type": "DT_FLOAT"}}}, {"name": "StatefulPartitionedCall/sequential_2_1/nasnet_mobile_1/separable_conv_1_bn_reduction_left1_reduce_4_1/batchnorm/sub", "op": "Const", "attr": {"value": {"tensor": {"dtype": "DT_FLOAT", "tensorShape": {"dim": [{"size": "88"}]}}}, "dtype": {"type": "DT_FLOAT"}}}, {"name": "StatefulPartitionedCall/sequential_2_1/nasnet_mobile_1/separable_conv_2_reduction_left1_reduce_4_1/separable_conv2d/ReadVariableOp", "op": "Const", "attr": {"value": {"tensor": {"dtype": "DT_FLOAT", "tensorShape": {"dim": [{"size": "5"}, {"size": "5"}, {"size": "88"}, {"size": "1"}]}}}, "dtype": {"type": "DT_FLOAT"}}}, {"name": "StatefulPartitionedCall/sequential_2_1/nasnet_mobile_1/separable_conv_2_reduction_left1_reduce_4_1/separable_conv2d/merged_input", "op": "Const", "attr": {"value": {"tensor": {"dtype": "DT_FLOAT", "tensorShape": {"dim": [{"size": "1"}, {"size": "1"}, {"size": "88"}, {"size": "88"}]}}}, "dtype": {"type": "DT_FLOAT"}}}, {"name": "StatefulPartitionedCall/sequential_2_1/nasnet_mobile_1/separable_conv_2_bn_reduction_left1_reduce_4_1/batchnorm/sub", "op": "Const", "attr": {"value": {"tensor": {"dtype": "DT_FLOAT", "tensorShape": {"dim": [{"size": "88"}]}}}, "dtype": {"type": "DT_FLOAT"}}}, {"name": "StatefulPartitionedCall/sequential_2_1/nasnet_mobile_1/adjust_conv_projection_reduce_4_1/convolution/merged_input", "op": "Const", "attr": {"value": {"tensor": {"dtype": "DT_FLOAT", "tensorShape": {"dim": [{"size": "1"}, {"size": "1"}, {"size": "264"}, {"size": "88"}]}}}, "dtype": {"type": "DT_FLOAT"}}}, {"name": "StatefulPartitionedCall/sequential_2_1/nasnet_mobile_1/adjust_bn_reduce_4_1/batchnorm/sub", "op": "Const", "attr": {"value": {"tensor": {"dtype": "DT_FLOAT", "tensorShape": {"dim": [{"size": "88"}]}}}, "dtype": {"type": "DT_FLOAT"}}}, {"name": "StatefulPartitionedCall/sequential_2_1/nasnet_mobile_1/separable_conv_1_pad_reduction_right1_reduce_4_1/Const", "op": "Const", "attr": {"value": {"tensor": {"dtype": "DT_INT32", "tensorShape": {"dim": [{"size": "4"}, {"size": "2"}]}}}, "dtype": {"type": "DT_INT32"}}}, {"name": "StatefulPartitionedCall/sequential_2_1/nasnet_mobile_1/separable_conv_1_reduction_right1_reduce_4_1/separable_conv2d/ReadVariableOp", "op": "Const", "attr": {"value": {"tensor": {"dtype": "DT_FLOAT", "tensorShape": {"dim": [{"size": "7"}, {"size": "7"}, {"size": "88"}, {"size": "1"}]}}}, "dtype": {"type": "DT_FLOAT"}}}, {"name": "StatefulPartitionedCall/sequential_2_1/nasnet_mobile_1/separable_conv_1_reduction_right1_reduce_4_1/separable_conv2d/merged_input", "op": "Const", "attr": {"value": {"tensor": {"dtype": "DT_FLOAT", "tensorShape": {"dim": [{"size": "1"}, {"size": "1"}, {"size": "88"}, {"size": "88"}]}}}, "dtype": {"type": "DT_FLOAT"}}}, {"name": "StatefulPartitionedCall/sequential_2_1/nasnet_mobile_1/separable_conv_1_bn_reduction_right1_reduce_4_1/batchnorm/sub", "op": "Const", "attr": {"value": {"tensor": {"dtype": "DT_FLOAT", "tensorShape": {"dim": [{"size": "88"}]}}}, "dtype": {"type": "DT_FLOAT"}}}, {"name": "StatefulPartitionedCall/sequential_2_1/nasnet_mobile_1/separable_conv_2_reduction_right1_reduce_4_1/separable_conv2d/ReadVariableOp", "op": "Const", "attr": {"value": {"tensor": {"dtype": "DT_FLOAT", "tensorShape": {"dim": [{"size": "7"}, {"size": "7"}, {"size": "88"}, {"size": "1"}]}}}, "dtype": {"type": "DT_FLOAT"}}}, {"name": "StatefulPartitionedCall/sequential_2_1/nasnet_mobile_1/separable_conv_2_reduction_right1_reduce_4_1/separable_conv2d/merged_input", "op": "Const", "attr": {"value": {"tensor": {"dtype": "DT_FLOAT", "tensorShape": {"dim": [{"size": "1"}, {"size": "1"}, {"size": "88"}, {"size": "88"}]}}}, "dtype": {"type": "DT_FLOAT"}}}, {"name": "StatefulPartitionedCall/sequential_2_1/nasnet_mobile_1/separable_conv_2_bn_reduction_right1_reduce_4_1/batchnorm/sub", "op": "Const", "attr": {"value": {"tensor": {"dtype": "DT_FLOAT", "tensorShape": {"dim": [{"size": "88"}]}}}, "dtype": {"type": "DT_FLOAT"}}}, {"name": "StatefulPartitionedCall/sequential_2_1/nasnet_mobile_1/separable_conv_1_reduction_left4_reduce_4_1/separable_conv2d/ReadVariableOp", "op": "Const", "attr": {"value": {"tensor": {"dtype": "DT_FLOAT", "tensorShape": {"dim": [{"size": "3"}, {"size": "3"}, {"size": "88"}, {"size": "1"}]}}}, "dtype": {"type": "DT_FLOAT"}}}, {"name": "StatefulPartitionedCall/sequential_2_1/nasnet_mobile_1/separable_conv_1_reduction_left4_reduce_4_1/separable_conv2d/merged_input", "op": "Const", "attr": {"value": {"tensor": {"dtype": "DT_FLOAT", "tensorShape": {"dim": [{"size": "1"}, {"size": "1"}, {"size": "88"}, {"size": "88"}]}}}, "dtype": {"type": "DT_FLOAT"}}}, {"name": "StatefulPartitionedCall/sequential_2_1/nasnet_mobile_1/separable_conv_1_bn_reduction_left4_reduce_4_1/batchnorm/sub", "op": "Const", "attr": {"value": {"tensor": {"dtype": "DT_FLOAT", "tensorShape": {"dim": [{"size": "88"}]}}}, "dtype": {"type": "DT_FLOAT"}}}, {"name": "StatefulPartitionedCall/sequential_2_1/nasnet_mobile_1/separable_conv_2_reduction_left4_reduce_4_1/separable_conv2d/ReadVariableOp", "op": "Const", "attr": {"value": {"tensor": {"dtype": "DT_FLOAT", "tensorShape": {"dim": [{"size": "3"}, {"size": "3"}, {"size": "88"}, {"size": "1"}]}}}, "dtype": {"type": "DT_FLOAT"}}}, {"name": "StatefulPartitionedCall/sequential_2_1/nasnet_mobile_1/separable_conv_2_reduction_left4_reduce_4_1/separable_conv2d/merged_input", "op": "Const", "attr": {"value": {"tensor": {"dtype": "DT_FLOAT", "tensorShape": {"dim": [{"size": "1"}, {"size": "1"}, {"size": "88"}, {"size": "88"}]}}}, "dtype": {"type": "DT_FLOAT"}}}, {"name": "StatefulPartitionedCall/sequential_2_1/nasnet_mobile_1/separable_conv_2_bn_reduction_left4_reduce_4_1/batchnorm/sub", "op": "Const", "attr": {"value": {"tensor": {"dtype": "DT_FLOAT", "tensorShape": {"dim": [{"size": "88"}]}}}, "dtype": {"type": "DT_FLOAT"}}}, {"name": "StatefulPartitionedCall/sequential_2_1/nasnet_mobile_1/separable_conv_1_normal_left1_3_1/separable_conv2d/ReadVariableOp", "op": "Const", "attr": {"value": {"tensor": {"dtype": "DT_FLOAT", "tensorShape": {"dim": [{"size": "5"}, {"size": "5"}, {"size": "44"}, {"size": "1"}]}}}, "dtype": {"type": "DT_FLOAT"}}}, {"name": "StatefulPartitionedCall/sequential_2_1/nasnet_mobile_1/separable_conv_1_normal_left1_3_1/separable_conv2d/merged_input", "op": "Const", "attr": {"value": {"tensor": {"dtype": "DT_FLOAT", "tensorShape": {"dim": [{"size": "1"}, {"size": "1"}, {"size": "44"}, {"size": "44"}]}}}, "dtype": {"type": "DT_FLOAT"}}}, {"name": "StatefulPartitionedCall/sequential_2_1/nasnet_mobile_1/separable_conv_1_bn_normal_left1_3_1/batchnorm/sub", "op": "Const", "attr": {"value": {"tensor": {"dtype": "DT_FLOAT", "tensorShape": {"dim": [{"size": "44"}]}}}, "dtype": {"type": "DT_FLOAT"}}}, {"name": "StatefulPartitionedCall/sequential_2_1/nasnet_mobile_1/separable_conv_2_normal_left1_3_1/separable_conv2d/ReadVariableOp", "op": "Const", "attr": {"value": {"tensor": {"dtype": "DT_FLOAT", "tensorShape": {"dim": [{"size": "5"}, {"size": "5"}, {"size": "44"}, {"size": "1"}]}}}, "dtype": {"type": "DT_FLOAT"}}}, {"name": "StatefulPartitionedCall/sequential_2_1/nasnet_mobile_1/separable_conv_2_normal_left1_3_1/separable_conv2d/merged_input", "op": "Const", "attr": {"value": {"tensor": {"dtype": "DT_FLOAT", "tensorShape": {"dim": [{"size": "1"}, {"size": "1"}, {"size": "44"}, {"size": "44"}]}}}, "dtype": {"type": "DT_FLOAT"}}}, {"name": "StatefulPartitionedCall/sequential_2_1/nasnet_mobile_1/separable_conv_2_bn_normal_left1_3_1/batchnorm/sub", "op": "Const", "attr": {"value": {"tensor": {"dtype": "DT_FLOAT", "tensorShape": {"dim": [{"size": "44"}]}}}, "dtype": {"type": "DT_FLOAT"}}}, {"name": "StatefulPartitionedCall/sequential_2_1/nasnet_mobile_1/separable_conv_1_normal_right1_3_1/separable_conv2d/ReadVariableOp", "op": "Const", "attr": {"value": {"tensor": {"dtype": "DT_FLOAT", "tensorShape": {"dim": [{"size": "3"}, {"size": "3"}, {"size": "44"}, {"size": "1"}]}}}, "dtype": {"type": "DT_FLOAT"}}}, {"name": "StatefulPartitionedCall/sequential_2_1/nasnet_mobile_1/separable_conv_1_normal_right1_3_1/separable_conv2d/merged_input", "op": "Const", "attr": {"value": {"tensor": {"dtype": "DT_FLOAT", "tensorShape": {"dim": [{"size": "1"}, {"size": "1"}, {"size": "44"}, {"size": "44"}]}}}, "dtype": {"type": "DT_FLOAT"}}}, {"name": "StatefulPartitionedCall/sequential_2_1/nasnet_mobile_1/separable_conv_1_bn_normal_right1_3_1/batchnorm/sub", "op": "Const", "attr": {"value": {"tensor": {"dtype": "DT_FLOAT", "tensorShape": {"dim": [{"size": "44"}]}}}, "dtype": {"type": "DT_FLOAT"}}}, {"name": "StatefulPartitionedCall/sequential_2_1/nasnet_mobile_1/separable_conv_2_normal_right1_3_1/separable_conv2d/ReadVariableOp", "op": "Const", "attr": {"value": {"tensor": {"dtype": "DT_FLOAT", "tensorShape": {"dim": [{"size": "3"}, {"size": "3"}, {"size": "44"}, {"size": "1"}]}}}, "dtype": {"type": "DT_FLOAT"}}}, {"name": "StatefulPartitionedCall/sequential_2_1/nasnet_mobile_1/separable_conv_2_normal_right1_3_1/separable_conv2d/merged_input", "op": "Const", "attr": {"value": {"tensor": {"dtype": "DT_FLOAT", "tensorShape": {"dim": [{"size": "1"}, {"size": "1"}, {"size": "44"}, {"size": "44"}]}}}, "dtype": {"type": "DT_FLOAT"}}}, {"name": "StatefulPartitionedCall/sequential_2_1/nasnet_mobile_1/separable_conv_2_bn_normal_right1_3_1/batchnorm/sub", "op": "Const", "attr": {"value": {"tensor": {"dtype": "DT_FLOAT", "tensorShape": {"dim": [{"size": "44"}]}}}, "dtype": {"type": "DT_FLOAT"}}}, {"name": "StatefulPartitionedCall/sequential_2_1/nasnet_mobile_1/separable_conv_1_normal_left2_3_1/separable_conv2d/ReadVariableOp", "op": "Const", "attr": {"value": {"tensor": {"dtype": "DT_FLOAT", "tensorShape": {"dim": [{"size": "5"}, {"size": "5"}, {"size": "44"}, {"size": "1"}]}}}, "dtype": {"type": "DT_FLOAT"}}}, {"name": "StatefulPartitionedCall/sequential_2_1/nasnet_mobile_1/separable_conv_1_normal_left2_3_1/separable_conv2d/merged_input", "op": "Const", "attr": {"value": {"tensor": {"dtype": "DT_FLOAT", "tensorShape": {"dim": [{"size": "1"}, {"size": "1"}, {"size": "44"}, {"size": "44"}]}}}, "dtype": {"type": "DT_FLOAT"}}}, {"name": "StatefulPartitionedCall/sequential_2_1/nasnet_mobile_1/separable_conv_1_bn_normal_left2_3_1/batchnorm/sub", "op": "Const", "attr": {"value": {"tensor": {"dtype": "DT_FLOAT", "tensorShape": {"dim": [{"size": "44"}]}}}, "dtype": {"type": "DT_FLOAT"}}}, {"name": "StatefulPartitionedCall/sequential_2_1/nasnet_mobile_1/separable_conv_2_normal_left2_3_1/separable_conv2d/ReadVariableOp", "op": "Const", "attr": {"value": {"tensor": {"dtype": "DT_FLOAT", "tensorShape": {"dim": [{"size": "5"}, {"size": "5"}, {"size": "44"}, {"size": "1"}]}}}, "dtype": {"type": "DT_FLOAT"}}}, {"name": "StatefulPartitionedCall/sequential_2_1/nasnet_mobile_1/separable_conv_2_normal_left2_3_1/separable_conv2d/merged_input", "op": "Const", "attr": {"value": {"tensor": {"dtype": "DT_FLOAT", "tensorShape": {"dim": [{"size": "1"}, {"size": "1"}, {"size": "44"}, {"size": "44"}]}}}, "dtype": {"type": "DT_FLOAT"}}}, {"name": "StatefulPartitionedCall/sequential_2_1/nasnet_mobile_1/separable_conv_2_bn_normal_left2_3_1/batchnorm/sub", "op": "Const", "attr": {"value": {"tensor": {"dtype": "DT_FLOAT", "tensorShape": {"dim": [{"size": "44"}]}}}, "dtype": {"type": "DT_FLOAT"}}}, {"name": "StatefulPartitionedCall/sequential_2_1/nasnet_mobile_1/separable_conv_1_normal_right2_3_1/separable_conv2d/ReadVariableOp", "op": "Const", "attr": {"value": {"tensor": {"dtype": "DT_FLOAT", "tensorShape": {"dim": [{"size": "3"}, {"size": "3"}, {"size": "44"}, {"size": "1"}]}}}, "dtype": {"type": "DT_FLOAT"}}}, {"name": "StatefulPartitionedCall/sequential_2_1/nasnet_mobile_1/separable_conv_1_normal_right2_3_1/separable_conv2d/merged_input", "op": "Const", "attr": {"value": {"tensor": {"dtype": "DT_FLOAT", "tensorShape": {"dim": [{"size": "1"}, {"size": "1"}, {"size": "44"}, {"size": "44"}]}}}, "dtype": {"type": "DT_FLOAT"}}}, {"name": "StatefulPartitionedCall/sequential_2_1/nasnet_mobile_1/separable_conv_1_bn_normal_right2_3_1/batchnorm/sub", "op": "Const", "attr": {"value": {"tensor": {"dtype": "DT_FLOAT", "tensorShape": {"dim": [{"size": "44"}]}}}, "dtype": {"type": "DT_FLOAT"}}}, {"name": "StatefulPartitionedCall/sequential_2_1/nasnet_mobile_1/separable_conv_2_normal_right2_3_1/separable_conv2d/ReadVariableOp", "op": "Const", "attr": {"value": {"tensor": {"dtype": "DT_FLOAT", "tensorShape": {"dim": [{"size": "3"}, {"size": "3"}, {"size": "44"}, {"size": "1"}]}}}, "dtype": {"type": "DT_FLOAT"}}}, {"name": "StatefulPartitionedCall/sequential_2_1/nasnet_mobile_1/separable_conv_2_normal_right2_3_1/separable_conv2d/merged_input", "op": "Const", "attr": {"value": {"tensor": {"dtype": "DT_FLOAT", "tensorShape": {"dim": [{"size": "1"}, {"size": "1"}, {"size": "44"}, {"size": "44"}]}}}, "dtype": {"type": "DT_FLOAT"}}}, {"name": "StatefulPartitionedCall/sequential_2_1/nasnet_mobile_1/separable_conv_2_bn_normal_right2_3_1/batchnorm/sub", "op": "Const", "attr": {"value": {"tensor": {"dtype": "DT_FLOAT", "tensorShape": {"dim": [{"size": "44"}]}}}, "dtype": {"type": "DT_FLOAT"}}}, {"name": "StatefulPartitionedCall/sequential_2_1/nasnet_mobile_1/adjust_conv_projection_3_1/convolution/merged_input", "op": "Const", "attr": {"value": {"tensor": {"dtype": "DT_FLOAT", "tensorShape": {"dim": [{"size": "1"}, {"size": "1"}, {"size": "264"}, {"size": "44"}]}}}, "dtype": {"type": "DT_FLOAT"}}}, {"name": "StatefulPartitionedCall/sequential_2_1/nasnet_mobile_1/adjust_bn_3_1/batchnorm/sub", "op": "Const", "attr": {"value": {"tensor": {"dtype": "DT_FLOAT", "tensorShape": {"dim": [{"size": "44"}]}}}, "dtype": {"type": "DT_FLOAT"}}}, {"name": "StatefulPartitionedCall/sequential_2_1/nasnet_mobile_1/separable_conv_1_normal_left5_3_1/separable_conv2d/ReadVariableOp", "op": "Const", "attr": {"value": {"tensor": {"dtype": "DT_FLOAT", "tensorShape": {"dim": [{"size": "3"}, {"size": "3"}, {"size": "44"}, {"size": "1"}]}}}, "dtype": {"type": "DT_FLOAT"}}}, {"name": "StatefulPartitionedCall/sequential_2_1/nasnet_mobile_1/separable_conv_1_normal_left5_3_1/separable_conv2d/merged_input", "op": "Const", "attr": {"value": {"tensor": {"dtype": "DT_FLOAT", "tensorShape": {"dim": [{"size": "1"}, {"size": "1"}, {"size": "44"}, {"size": "44"}]}}}, "dtype": {"type": "DT_FLOAT"}}}, {"name": "StatefulPartitionedCall/sequential_2_1/nasnet_mobile_1/separable_conv_1_bn_normal_left5_3_1/batchnorm/sub", "op": "Const", "attr": {"value": {"tensor": {"dtype": "DT_FLOAT", "tensorShape": {"dim": [{"size": "44"}]}}}, "dtype": {"type": "DT_FLOAT"}}}, {"name": "StatefulPartitionedCall/sequential_2_1/nasnet_mobile_1/separable_conv_2_normal_left5_3_1/separable_conv2d/ReadVariableOp", "op": "Const", "attr": {"value": {"tensor": {"dtype": "DT_FLOAT", "tensorShape": {"dim": [{"size": "3"}, {"size": "3"}, {"size": "44"}, {"size": "1"}]}}}, "dtype": {"type": "DT_FLOAT"}}}, {"name": "StatefulPartitionedCall/sequential_2_1/nasnet_mobile_1/separable_conv_2_normal_left5_3_1/separable_conv2d/merged_input", "op": "Const", "attr": {"value": {"tensor": {"dtype": "DT_FLOAT", "tensorShape": {"dim": [{"size": "1"}, {"size": "1"}, {"size": "44"}, {"size": "44"}]}}}, "dtype": {"type": "DT_FLOAT"}}}, {"name": "StatefulPartitionedCall/sequential_2_1/nasnet_mobile_1/separable_conv_2_bn_normal_left5_3_1/batchnorm/sub", "op": "Const", "attr": {"value": {"tensor": {"dtype": "DT_FLOAT", "tensorShape": {"dim": [{"size": "44"}]}}}, "dtype": {"type": "DT_FLOAT"}}}, {"name": "StatefulPartitionedCall/sequential_2_1/nasnet_mobile_1/separable_conv_1_normal_left1_2_1/separable_conv2d/ReadVariableOp", "op": "Const", "attr": {"value": {"tensor": {"dtype": "DT_FLOAT", "tensorShape": {"dim": [{"size": "5"}, {"size": "5"}, {"size": "44"}, {"size": "1"}]}}}, "dtype": {"type": "DT_FLOAT"}}}, {"name": "StatefulPartitionedCall/sequential_2_1/nasnet_mobile_1/separable_conv_1_normal_left1_2_1/separable_conv2d/merged_input", "op": "Const", "attr": {"value": {"tensor": {"dtype": "DT_FLOAT", "tensorShape": {"dim": [{"size": "1"}, {"size": "1"}, {"size": "44"}, {"size": "44"}]}}}, "dtype": {"type": "DT_FLOAT"}}}, {"name": "StatefulPartitionedCall/sequential_2_1/nasnet_mobile_1/separable_conv_1_bn_normal_left1_2_1/batchnorm/sub", "op": "Const", "attr": {"value": {"tensor": {"dtype": "DT_FLOAT", "tensorShape": {"dim": [{"size": "44"}]}}}, "dtype": {"type": "DT_FLOAT"}}}, {"name": "StatefulPartitionedCall/sequential_2_1/nasnet_mobile_1/separable_conv_2_normal_left1_2_1/separable_conv2d/ReadVariableOp", "op": "Const", "attr": {"value": {"tensor": {"dtype": "DT_FLOAT", "tensorShape": {"dim": [{"size": "5"}, {"size": "5"}, {"size": "44"}, {"size": "1"}]}}}, "dtype": {"type": "DT_FLOAT"}}}, {"name": "StatefulPartitionedCall/sequential_2_1/nasnet_mobile_1/separable_conv_2_normal_left1_2_1/separable_conv2d/merged_input", "op": "Const", "attr": {"value": {"tensor": {"dtype": "DT_FLOAT", "tensorShape": {"dim": [{"size": "1"}, {"size": "1"}, {"size": "44"}, {"size": "44"}]}}}, "dtype": {"type": "DT_FLOAT"}}}, {"name": "StatefulPartitionedCall/sequential_2_1/nasnet_mobile_1/separable_conv_2_bn_normal_left1_2_1/batchnorm/sub", "op": "Const", "attr": {"value": {"tensor": {"dtype": "DT_FLOAT", "tensorShape": {"dim": [{"size": "44"}]}}}, "dtype": {"type": "DT_FLOAT"}}}, {"name": "StatefulPartitionedCall/sequential_2_1/nasnet_mobile_1/separable_conv_1_normal_right1_2_1/separable_conv2d/ReadVariableOp", "op": "Const", "attr": {"value": {"tensor": {"dtype": "DT_FLOAT", "tensorShape": {"dim": [{"size": "3"}, {"size": "3"}, {"size": "44"}, {"size": "1"}]}}}, "dtype": {"type": "DT_FLOAT"}}}, {"name": "StatefulPartitionedCall/sequential_2_1/nasnet_mobile_1/separable_conv_1_normal_right1_2_1/separable_conv2d/merged_input", "op": "Const", "attr": {"value": {"tensor": {"dtype": "DT_FLOAT", "tensorShape": {"dim": [{"size": "1"}, {"size": "1"}, {"size": "44"}, {"size": "44"}]}}}, "dtype": {"type": "DT_FLOAT"}}}, {"name": "StatefulPartitionedCall/sequential_2_1/nasnet_mobile_1/separable_conv_1_bn_normal_right1_2_1/batchnorm/sub", "op": "Const", "attr": {"value": {"tensor": {"dtype": "DT_FLOAT", "tensorShape": {"dim": [{"size": "44"}]}}}, "dtype": {"type": "DT_FLOAT"}}}, {"name": "StatefulPartitionedCall/sequential_2_1/nasnet_mobile_1/separable_conv_2_normal_right1_2_1/separable_conv2d/ReadVariableOp", "op": "Const", "attr": {"value": {"tensor": {"dtype": "DT_FLOAT", "tensorShape": {"dim": [{"size": "3"}, {"size": "3"}, {"size": "44"}, {"size": "1"}]}}}, "dtype": {"type": "DT_FLOAT"}}}, {"name": "StatefulPartitionedCall/sequential_2_1/nasnet_mobile_1/separable_conv_2_normal_right1_2_1/separable_conv2d/merged_input", "op": "Const", "attr": {"value": {"tensor": {"dtype": "DT_FLOAT", "tensorShape": {"dim": [{"size": "1"}, {"size": "1"}, {"size": "44"}, {"size": "44"}]}}}, "dtype": {"type": "DT_FLOAT"}}}, {"name": "StatefulPartitionedCall/sequential_2_1/nasnet_mobile_1/separable_conv_2_bn_normal_right1_2_1/batchnorm/sub", "op": "Const", "attr": {"value": {"tensor": {"dtype": "DT_FLOAT", "tensorShape": {"dim": [{"size": "44"}]}}}, "dtype": {"type": "DT_FLOAT"}}}, {"name": "StatefulPartitionedCall/sequential_2_1/nasnet_mobile_1/separable_conv_1_normal_left2_2_1/separable_conv2d/ReadVariableOp", "op": "Const", "attr": {"value": {"tensor": {"dtype": "DT_FLOAT", "tensorShape": {"dim": [{"size": "5"}, {"size": "5"}, {"size": "44"}, {"size": "1"}]}}}, "dtype": {"type": "DT_FLOAT"}}}, {"name": "StatefulPartitionedCall/sequential_2_1/nasnet_mobile_1/separable_conv_1_normal_left2_2_1/separable_conv2d/merged_input", "op": "Const", "attr": {"value": {"tensor": {"dtype": "DT_FLOAT", "tensorShape": {"dim": [{"size": "1"}, {"size": "1"}, {"size": "44"}, {"size": "44"}]}}}, "dtype": {"type": "DT_FLOAT"}}}, {"name": "StatefulPartitionedCall/sequential_2_1/nasnet_mobile_1/separable_conv_1_bn_normal_left2_2_1/batchnorm/sub", "op": "Const", "attr": {"value": {"tensor": {"dtype": "DT_FLOAT", "tensorShape": {"dim": [{"size": "44"}]}}}, "dtype": {"type": "DT_FLOAT"}}}, {"name": "StatefulPartitionedCall/sequential_2_1/nasnet_mobile_1/separable_conv_2_normal_left2_2_1/separable_conv2d/ReadVariableOp", "op": "Const", "attr": {"value": {"tensor": {"dtype": "DT_FLOAT", "tensorShape": {"dim": [{"size": "5"}, {"size": "5"}, {"size": "44"}, {"size": "1"}]}}}, "dtype": {"type": "DT_FLOAT"}}}, {"name": "StatefulPartitionedCall/sequential_2_1/nasnet_mobile_1/separable_conv_2_normal_left2_2_1/separable_conv2d/merged_input", "op": "Const", "attr": {"value": {"tensor": {"dtype": "DT_FLOAT", "tensorShape": {"dim": [{"size": "1"}, {"size": "1"}, {"size": "44"}, {"size": "44"}]}}}, "dtype": {"type": "DT_FLOAT"}}}, {"name": "StatefulPartitionedCall/sequential_2_1/nasnet_mobile_1/separable_conv_2_bn_normal_left2_2_1/batchnorm/sub", "op": "Const", "attr": {"value": {"tensor": {"dtype": "DT_FLOAT", "tensorShape": {"dim": [{"size": "44"}]}}}, "dtype": {"type": "DT_FLOAT"}}}, {"name": "StatefulPartitionedCall/sequential_2_1/nasnet_mobile_1/separable_conv_1_normal_right2_2_1/separable_conv2d/ReadVariableOp", "op": "Const", "attr": {"value": {"tensor": {"dtype": "DT_FLOAT", "tensorShape": {"dim": [{"size": "3"}, {"size": "3"}, {"size": "44"}, {"size": "1"}]}}}, "dtype": {"type": "DT_FLOAT"}}}, {"name": "StatefulPartitionedCall/sequential_2_1/nasnet_mobile_1/separable_conv_1_normal_right2_2_1/separable_conv2d/merged_input", "op": "Const", "attr": {"value": {"tensor": {"dtype": "DT_FLOAT", "tensorShape": {"dim": [{"size": "1"}, {"size": "1"}, {"size": "44"}, {"size": "44"}]}}}, "dtype": {"type": "DT_FLOAT"}}}, {"name": "StatefulPartitionedCall/sequential_2_1/nasnet_mobile_1/separable_conv_1_bn_normal_right2_2_1/batchnorm/sub", "op": "Const", "attr": {"value": {"tensor": {"dtype": "DT_FLOAT", "tensorShape": {"dim": [{"size": "44"}]}}}, "dtype": {"type": "DT_FLOAT"}}}, {"name": "StatefulPartitionedCall/sequential_2_1/nasnet_mobile_1/separable_conv_2_normal_right2_2_1/separable_conv2d/ReadVariableOp", "op": "Const", "attr": {"value": {"tensor": {"dtype": "DT_FLOAT", "tensorShape": {"dim": [{"size": "3"}, {"size": "3"}, {"size": "44"}, {"size": "1"}]}}}, "dtype": {"type": "DT_FLOAT"}}}, {"name": "StatefulPartitionedCall/sequential_2_1/nasnet_mobile_1/separable_conv_2_normal_right2_2_1/separable_conv2d/merged_input", "op": "Const", "attr": {"value": {"tensor": {"dtype": "DT_FLOAT", "tensorShape": {"dim": [{"size": "1"}, {"size": "1"}, {"size": "44"}, {"size": "44"}]}}}, "dtype": {"type": "DT_FLOAT"}}}, {"name": "StatefulPartitionedCall/sequential_2_1/nasnet_mobile_1/separable_conv_2_bn_normal_right2_2_1/batchnorm/sub", "op": "Const", "attr": {"value": {"tensor": {"dtype": "DT_FLOAT", "tensorShape": {"dim": [{"size": "44"}]}}}, "dtype": {"type": "DT_FLOAT"}}}, {"name": "StatefulPartitionedCall/sequential_2_1/nasnet_mobile_1/adjust_conv_projection_2_1/convolution/merged_input", "op": "Const", "attr": {"value": {"tensor": {"dtype": "DT_FLOAT", "tensorShape": {"dim": [{"size": "1"}, {"size": "1"}, {"size": "264"}, {"size": "44"}]}}}, "dtype": {"type": "DT_FLOAT"}}}, {"name": "StatefulPartitionedCall/sequential_2_1/nasnet_mobile_1/adjust_bn_2_1/batchnorm/sub", "op": "Const", "attr": {"value": {"tensor": {"dtype": "DT_FLOAT", "tensorShape": {"dim": [{"size": "44"}]}}}, "dtype": {"type": "DT_FLOAT"}}}, {"name": "StatefulPartitionedCall/sequential_2_1/nasnet_mobile_1/separable_conv_1_normal_left5_2_1/separable_conv2d/ReadVariableOp", "op": "Const", "attr": {"value": {"tensor": {"dtype": "DT_FLOAT", "tensorShape": {"dim": [{"size": "3"}, {"size": "3"}, {"size": "44"}, {"size": "1"}]}}}, "dtype": {"type": "DT_FLOAT"}}}, {"name": "StatefulPartitionedCall/sequential_2_1/nasnet_mobile_1/separable_conv_1_normal_left5_2_1/separable_conv2d/merged_input", "op": "Const", "attr": {"value": {"tensor": {"dtype": "DT_FLOAT", "tensorShape": {"dim": [{"size": "1"}, {"size": "1"}, {"size": "44"}, {"size": "44"}]}}}, "dtype": {"type": "DT_FLOAT"}}}, {"name": "StatefulPartitionedCall/sequential_2_1/nasnet_mobile_1/separable_conv_1_bn_normal_left5_2_1/batchnorm/sub", "op": "Const", "attr": {"value": {"tensor": {"dtype": "DT_FLOAT", "tensorShape": {"dim": [{"size": "44"}]}}}, "dtype": {"type": "DT_FLOAT"}}}, {"name": "StatefulPartitionedCall/sequential_2_1/nasnet_mobile_1/separable_conv_2_normal_left5_2_1/separable_conv2d/ReadVariableOp", "op": "Const", "attr": {"value": {"tensor": {"dtype": "DT_FLOAT", "tensorShape": {"dim": [{"size": "3"}, {"size": "3"}, {"size": "44"}, {"size": "1"}]}}}, "dtype": {"type": "DT_FLOAT"}}}, {"name": "StatefulPartitionedCall/sequential_2_1/nasnet_mobile_1/separable_conv_2_normal_left5_2_1/separable_conv2d/merged_input", "op": "Const", "attr": {"value": {"tensor": {"dtype": "DT_FLOAT", "tensorShape": {"dim": [{"size": "1"}, {"size": "1"}, {"size": "44"}, {"size": "44"}]}}}, "dtype": {"type": "DT_FLOAT"}}}, {"name": "StatefulPartitionedCall/sequential_2_1/nasnet_mobile_1/separable_conv_2_bn_normal_left5_2_1/batchnorm/sub", "op": "Const", "attr": {"value": {"tensor": {"dtype": "DT_FLOAT", "tensorShape": {"dim": [{"size": "44"}]}}}, "dtype": {"type": "DT_FLOAT"}}}, {"name": "StatefulPartitionedCall/sequential_2_1/nasnet_mobile_1/separable_conv_1_normal_left1_1_1/separable_conv2d/ReadVariableOp", "op": "Const", "attr": {"value": {"tensor": {"dtype": "DT_FLOAT", "tensorShape": {"dim": [{"size": "5"}, {"size": "5"}, {"size": "44"}, {"size": "1"}]}}}, "dtype": {"type": "DT_FLOAT"}}}, {"name": "StatefulPartitionedCall/sequential_2_1/nasnet_mobile_1/separable_conv_1_normal_left1_1_1/separable_conv2d/merged_input", "op": "Const", "attr": {"value": {"tensor": {"dtype": "DT_FLOAT", "tensorShape": {"dim": [{"size": "1"}, {"size": "1"}, {"size": "44"}, {"size": "44"}]}}}, "dtype": {"type": "DT_FLOAT"}}}, {"name": "StatefulPartitionedCall/sequential_2_1/nasnet_mobile_1/separable_conv_1_bn_normal_left1_1_1/batchnorm/sub", "op": "Const", "attr": {"value": {"tensor": {"dtype": "DT_FLOAT", "tensorShape": {"dim": [{"size": "44"}]}}}, "dtype": {"type": "DT_FLOAT"}}}, {"name": "StatefulPartitionedCall/sequential_2_1/nasnet_mobile_1/separable_conv_2_normal_left1_1_1/separable_conv2d/ReadVariableOp", "op": "Const", "attr": {"value": {"tensor": {"dtype": "DT_FLOAT", "tensorShape": {"dim": [{"size": "5"}, {"size": "5"}, {"size": "44"}, {"size": "1"}]}}}, "dtype": {"type": "DT_FLOAT"}}}, {"name": "StatefulPartitionedCall/sequential_2_1/nasnet_mobile_1/separable_conv_2_normal_left1_1_1/separable_conv2d/merged_input", "op": "Const", "attr": {"value": {"tensor": {"dtype": "DT_FLOAT", "tensorShape": {"dim": [{"size": "1"}, {"size": "1"}, {"size": "44"}, {"size": "44"}]}}}, "dtype": {"type": "DT_FLOAT"}}}, {"name": "StatefulPartitionedCall/sequential_2_1/nasnet_mobile_1/separable_conv_2_bn_normal_left1_1_1/batchnorm/sub", "op": "Const", "attr": {"value": {"tensor": {"dtype": "DT_FLOAT", "tensorShape": {"dim": [{"size": "44"}]}}}, "dtype": {"type": "DT_FLOAT"}}}, {"name": "StatefulPartitionedCall/sequential_2_1/nasnet_mobile_1/separable_conv_1_normal_right1_1_1/separable_conv2d/ReadVariableOp", "op": "Const", "attr": {"value": {"tensor": {"dtype": "DT_FLOAT", "tensorShape": {"dim": [{"size": "3"}, {"size": "3"}, {"size": "44"}, {"size": "1"}]}}}, "dtype": {"type": "DT_FLOAT"}}}, {"name": "StatefulPartitionedCall/sequential_2_1/nasnet_mobile_1/separable_conv_1_normal_right1_1_1/separable_conv2d/merged_input", "op": "Const", "attr": {"value": {"tensor": {"dtype": "DT_FLOAT", "tensorShape": {"dim": [{"size": "1"}, {"size": "1"}, {"size": "44"}, {"size": "44"}]}}}, "dtype": {"type": "DT_FLOAT"}}}, {"name": "StatefulPartitionedCall/sequential_2_1/nasnet_mobile_1/separable_conv_1_bn_normal_right1_1_1/batchnorm/sub", "op": "Const", "attr": {"value": {"tensor": {"dtype": "DT_FLOAT", "tensorShape": {"dim": [{"size": "44"}]}}}, "dtype": {"type": "DT_FLOAT"}}}, {"name": "StatefulPartitionedCall/sequential_2_1/nasnet_mobile_1/separable_conv_2_normal_right1_1_1/separable_conv2d/ReadVariableOp", "op": "Const", "attr": {"value": {"tensor": {"dtype": "DT_FLOAT", "tensorShape": {"dim": [{"size": "3"}, {"size": "3"}, {"size": "44"}, {"size": "1"}]}}}, "dtype": {"type": "DT_FLOAT"}}}, {"name": "StatefulPartitionedCall/sequential_2_1/nasnet_mobile_1/separable_conv_2_normal_right1_1_1/separable_conv2d/merged_input", "op": "Const", "attr": {"value": {"tensor": {"dtype": "DT_FLOAT", "tensorShape": {"dim": [{"size": "1"}, {"size": "1"}, {"size": "44"}, {"size": "44"}]}}}, "dtype": {"type": "DT_FLOAT"}}}, {"name": "StatefulPartitionedCall/sequential_2_1/nasnet_mobile_1/separable_conv_2_bn_normal_right1_1_1/batchnorm/sub", "op": "Const", "attr": {"value": {"tensor": {"dtype": "DT_FLOAT", "tensorShape": {"dim": [{"size": "44"}]}}}, "dtype": {"type": "DT_FLOAT"}}}, {"name": "StatefulPartitionedCall/sequential_2_1/nasnet_mobile_1/separable_conv_1_normal_left2_1_1/separable_conv2d/ReadVariableOp", "op": "Const", "attr": {"value": {"tensor": {"dtype": "DT_FLOAT", "tensorShape": {"dim": [{"size": "5"}, {"size": "5"}, {"size": "44"}, {"size": "1"}]}}}, "dtype": {"type": "DT_FLOAT"}}}, {"name": "StatefulPartitionedCall/sequential_2_1/nasnet_mobile_1/separable_conv_1_normal_left2_1_1/separable_conv2d/merged_input", "op": "Const", "attr": {"value": {"tensor": {"dtype": "DT_FLOAT", "tensorShape": {"dim": [{"size": "1"}, {"size": "1"}, {"size": "44"}, {"size": "44"}]}}}, "dtype": {"type": "DT_FLOAT"}}}, {"name": "StatefulPartitionedCall/sequential_2_1/nasnet_mobile_1/separable_conv_1_bn_normal_left2_1_1/batchnorm/sub", "op": "Const", "attr": {"value": {"tensor": {"dtype": "DT_FLOAT", "tensorShape": {"dim": [{"size": "44"}]}}}, "dtype": {"type": "DT_FLOAT"}}}, {"name": "StatefulPartitionedCall/sequential_2_1/nasnet_mobile_1/separable_conv_2_normal_left2_1_1/separable_conv2d/ReadVariableOp", "op": "Const", "attr": {"value": {"tensor": {"dtype": "DT_FLOAT", "tensorShape": {"dim": [{"size": "5"}, {"size": "5"}, {"size": "44"}, {"size": "1"}]}}}, "dtype": {"type": "DT_FLOAT"}}}, {"name": "StatefulPartitionedCall/sequential_2_1/nasnet_mobile_1/separable_conv_2_normal_left2_1_1/separable_conv2d/merged_input", "op": "Const", "attr": {"value": {"tensor": {"dtype": "DT_FLOAT", "tensorShape": {"dim": [{"size": "1"}, {"size": "1"}, {"size": "44"}, {"size": "44"}]}}}, "dtype": {"type": "DT_FLOAT"}}}, {"name": "StatefulPartitionedCall/sequential_2_1/nasnet_mobile_1/separable_conv_2_bn_normal_left2_1_1/batchnorm/sub", "op": "Const", "attr": {"value": {"tensor": {"dtype": "DT_FLOAT", "tensorShape": {"dim": [{"size": "44"}]}}}, "dtype": {"type": "DT_FLOAT"}}}, {"name": "StatefulPartitionedCall/sequential_2_1/nasnet_mobile_1/separable_conv_1_normal_right2_1_1/separable_conv2d/ReadVariableOp", "op": "Const", "attr": {"value": {"tensor": {"dtype": "DT_FLOAT", "tensorShape": {"dim": [{"size": "3"}, {"size": "3"}, {"size": "44"}, {"size": "1"}]}}}, "dtype": {"type": "DT_FLOAT"}}}, {"name": "StatefulPartitionedCall/sequential_2_1/nasnet_mobile_1/separable_conv_1_normal_right2_1_1/separable_conv2d/merged_input", "op": "Const", "attr": {"value": {"tensor": {"dtype": "DT_FLOAT", "tensorShape": {"dim": [{"size": "1"}, {"size": "1"}, {"size": "44"}, {"size": "44"}]}}}, "dtype": {"type": "DT_FLOAT"}}}, {"name": "StatefulPartitionedCall/sequential_2_1/nasnet_mobile_1/separable_conv_1_bn_normal_right2_1_1/batchnorm/sub", "op": "Const", "attr": {"value": {"tensor": {"dtype": "DT_FLOAT", "tensorShape": {"dim": [{"size": "44"}]}}}, "dtype": {"type": "DT_FLOAT"}}}, {"name": "StatefulPartitionedCall/sequential_2_1/nasnet_mobile_1/separable_conv_2_normal_right2_1_1/separable_conv2d/ReadVariableOp", "op": "Const", "attr": {"value": {"tensor": {"dtype": "DT_FLOAT", "tensorShape": {"dim": [{"size": "3"}, {"size": "3"}, {"size": "44"}, {"size": "1"}]}}}, "dtype": {"type": "DT_FLOAT"}}}, {"name": "StatefulPartitionedCall/sequential_2_1/nasnet_mobile_1/separable_conv_2_normal_right2_1_1/separable_conv2d/merged_input", "op": "Const", "attr": {"value": {"tensor": {"dtype": "DT_FLOAT", "tensorShape": {"dim": [{"size": "1"}, {"size": "1"}, {"size": "44"}, {"size": "44"}]}}}, "dtype": {"type": "DT_FLOAT"}}}, {"name": "StatefulPartitionedCall/sequential_2_1/nasnet_mobile_1/separable_conv_2_bn_normal_right2_1_1/batchnorm/sub", "op": "Const", "attr": {"value": {"tensor": {"dtype": "DT_FLOAT", "tensorShape": {"dim": [{"size": "44"}]}}}, "dtype": {"type": "DT_FLOAT"}}}, {"name": "StatefulPartitionedCall/sequential_2_1/nasnet_mobile_1/adjust_conv_projection_1_1/convolution/merged_input", "op": "Const", "attr": {"value": {"tensor": {"dtype": "DT_FLOAT", "tensorShape": {"dim": [{"size": "1"}, {"size": "1"}, {"size": "88"}, {"size": "44"}]}}}, "dtype": {"type": "DT_FLOAT"}}}, {"name": "StatefulPartitionedCall/sequential_2_1/nasnet_mobile_1/adjust_bn_1_1/batchnorm/sub", "op": "Const", "attr": {"value": {"tensor": {"dtype": "DT_FLOAT", "tensorShape": {"dim": [{"size": "44"}]}}}, "dtype": {"type": "DT_FLOAT"}}}, {"name": "StatefulPartitionedCall/sequential_2_1/nasnet_mobile_1/separable_conv_1_normal_left5_1_1/separable_conv2d/ReadVariableOp", "op": "Const", "attr": {"value": {"tensor": {"dtype": "DT_FLOAT", "tensorShape": {"dim": [{"size": "3"}, {"size": "3"}, {"size": "44"}, {"size": "1"}]}}}, "dtype": {"type": "DT_FLOAT"}}}, {"name": "StatefulPartitionedCall/sequential_2_1/nasnet_mobile_1/separable_conv_1_normal_left5_1_1/separable_conv2d/merged_input", "op": "Const", "attr": {"value": {"tensor": {"dtype": "DT_FLOAT", "tensorShape": {"dim": [{"size": "1"}, {"size": "1"}, {"size": "44"}, {"size": "44"}]}}}, "dtype": {"type": "DT_FLOAT"}}}, {"name": "StatefulPartitionedCall/sequential_2_1/nasnet_mobile_1/separable_conv_1_bn_normal_left5_1_1/batchnorm/sub", "op": "Const", "attr": {"value": {"tensor": {"dtype": "DT_FLOAT", "tensorShape": {"dim": [{"size": "44"}]}}}, "dtype": {"type": "DT_FLOAT"}}}, {"name": "StatefulPartitionedCall/sequential_2_1/nasnet_mobile_1/separable_conv_2_normal_left5_1_1/separable_conv2d/ReadVariableOp", "op": "Const", "attr": {"value": {"tensor": {"dtype": "DT_FLOAT", "tensorShape": {"dim": [{"size": "3"}, {"size": "3"}, {"size": "44"}, {"size": "1"}]}}}, "dtype": {"type": "DT_FLOAT"}}}, {"name": "StatefulPartitionedCall/sequential_2_1/nasnet_mobile_1/separable_conv_2_normal_left5_1_1/separable_conv2d/merged_input", "op": "Const", "attr": {"value": {"tensor": {"dtype": "DT_FLOAT", "tensorShape": {"dim": [{"size": "1"}, {"size": "1"}, {"size": "44"}, {"size": "44"}]}}}, "dtype": {"type": "DT_FLOAT"}}}, {"name": "StatefulPartitionedCall/sequential_2_1/nasnet_mobile_1/separable_conv_2_bn_normal_left5_1_1/batchnorm/sub", "op": "Const", "attr": {"value": {"tensor": {"dtype": "DT_FLOAT", "tensorShape": {"dim": [{"size": "44"}]}}}, "dtype": {"type": "DT_FLOAT"}}}, {"name": "StatefulPartitionedCall/sequential_2_1/nasnet_mobile_1/separable_conv_1_normal_left1_0_1/separable_conv2d/ReadVariableOp", "op": "Const", "attr": {"value": {"tensor": {"dtype": "DT_FLOAT", "tensorShape": {"dim": [{"size": "5"}, {"size": "5"}, {"size": "44"}, {"size": "1"}]}}}, "dtype": {"type": "DT_FLOAT"}}}, {"name": "StatefulPartitionedCall/sequential_2_1/nasnet_mobile_1/separable_conv_1_normal_left1_0_1/separable_conv2d/merged_input", "op": "Const", "attr": {"value": {"tensor": {"dtype": "DT_FLOAT", "tensorShape": {"dim": [{"size": "1"}, {"size": "1"}, {"size": "44"}, {"size": "44"}]}}}, "dtype": {"type": "DT_FLOAT"}}}, {"name": "StatefulPartitionedCall/sequential_2_1/nasnet_mobile_1/separable_conv_1_bn_normal_left1_0_1/batchnorm/sub", "op": "Const", "attr": {"value": {"tensor": {"dtype": "DT_FLOAT", "tensorShape": {"dim": [{"size": "44"}]}}}, "dtype": {"type": "DT_FLOAT"}}}, {"name": "StatefulPartitionedCall/sequential_2_1/nasnet_mobile_1/separable_conv_2_normal_left1_0_1/separable_conv2d/ReadVariableOp", "op": "Const", "attr": {"value": {"tensor": {"dtype": "DT_FLOAT", "tensorShape": {"dim": [{"size": "5"}, {"size": "5"}, {"size": "44"}, {"size": "1"}]}}}, "dtype": {"type": "DT_FLOAT"}}}, {"name": "StatefulPartitionedCall/sequential_2_1/nasnet_mobile_1/separable_conv_2_normal_left1_0_1/separable_conv2d/merged_input", "op": "Const", "attr": {"value": {"tensor": {"dtype": "DT_FLOAT", "tensorShape": {"dim": [{"size": "1"}, {"size": "1"}, {"size": "44"}, {"size": "44"}]}}}, "dtype": {"type": "DT_FLOAT"}}}, {"name": "StatefulPartitionedCall/sequential_2_1/nasnet_mobile_1/separable_conv_2_bn_normal_left1_0_1/batchnorm/sub", "op": "Const", "attr": {"value": {"tensor": {"dtype": "DT_FLOAT", "tensorShape": {"dim": [{"size": "44"}]}}}, "dtype": {"type": "DT_FLOAT"}}}, {"name": "StatefulPartitionedCall/sequential_2_1/nasnet_mobile_1/separable_conv_1_normal_right1_0_1/separable_conv2d/ReadVariableOp", "op": "Const", "attr": {"value": {"tensor": {"dtype": "DT_FLOAT", "tensorShape": {"dim": [{"size": "3"}, {"size": "3"}, {"size": "44"}, {"size": "1"}]}}}, "dtype": {"type": "DT_FLOAT"}}}, {"name": "StatefulPartitionedCall/sequential_2_1/nasnet_mobile_1/separable_conv_1_normal_right1_0_1/separable_conv2d/merged_input", "op": "Const", "attr": {"value": {"tensor": {"dtype": "DT_FLOAT", "tensorShape": {"dim": [{"size": "1"}, {"size": "1"}, {"size": "44"}, {"size": "44"}]}}}, "dtype": {"type": "DT_FLOAT"}}}, {"name": "StatefulPartitionedCall/sequential_2_1/nasnet_mobile_1/separable_conv_1_bn_normal_right1_0_1/batchnorm/sub", "op": "Const", "attr": {"value": {"tensor": {"dtype": "DT_FLOAT", "tensorShape": {"dim": [{"size": "44"}]}}}, "dtype": {"type": "DT_FLOAT"}}}, {"name": "StatefulPartitionedCall/sequential_2_1/nasnet_mobile_1/separable_conv_2_normal_right1_0_1/separable_conv2d/ReadVariableOp", "op": "Const", "attr": {"value": {"tensor": {"dtype": "DT_FLOAT", "tensorShape": {"dim": [{"size": "3"}, {"size": "3"}, {"size": "44"}, {"size": "1"}]}}}, "dtype": {"type": "DT_FLOAT"}}}, {"name": "StatefulPartitionedCall/sequential_2_1/nasnet_mobile_1/separable_conv_2_normal_right1_0_1/separable_conv2d/merged_input", "op": "Const", "attr": {"value": {"tensor": {"dtype": "DT_FLOAT", "tensorShape": {"dim": [{"size": "1"}, {"size": "1"}, {"size": "44"}, {"size": "44"}]}}}, "dtype": {"type": "DT_FLOAT"}}}, {"name": "StatefulPartitionedCall/sequential_2_1/nasnet_mobile_1/separable_conv_2_bn_normal_right1_0_1/batchnorm/sub", "op": "Const", "attr": {"value": {"tensor": {"dtype": "DT_FLOAT", "tensorShape": {"dim": [{"size": "44"}]}}}, "dtype": {"type": "DT_FLOAT"}}}, {"name": "StatefulPartitionedCall/sequential_2_1/nasnet_mobile_1/separable_conv_1_normal_left2_0_1/separable_conv2d/ReadVariableOp", "op": "Const", "attr": {"value": {"tensor": {"dtype": "DT_FLOAT", "tensorShape": {"dim": [{"size": "5"}, {"size": "5"}, {"size": "44"}, {"size": "1"}]}}}, "dtype": {"type": "DT_FLOAT"}}}, {"name": "StatefulPartitionedCall/sequential_2_1/nasnet_mobile_1/separable_conv_1_normal_left2_0_1/separable_conv2d/merged_input", "op": "Const", "attr": {"value": {"tensor": {"dtype": "DT_FLOAT", "tensorShape": {"dim": [{"size": "1"}, {"size": "1"}, {"size": "44"}, {"size": "44"}]}}}, "dtype": {"type": "DT_FLOAT"}}}, {"name": "StatefulPartitionedCall/sequential_2_1/nasnet_mobile_1/separable_conv_1_bn_normal_left2_0_1/batchnorm/sub", "op": "Const", "attr": {"value": {"tensor": {"dtype": "DT_FLOAT", "tensorShape": {"dim": [{"size": "44"}]}}}, "dtype": {"type": "DT_FLOAT"}}}, {"name": "StatefulPartitionedCall/sequential_2_1/nasnet_mobile_1/separable_conv_2_normal_left2_0_1/separable_conv2d/ReadVariableOp", "op": "Const", "attr": {"value": {"tensor": {"dtype": "DT_FLOAT", "tensorShape": {"dim": [{"size": "5"}, {"size": "5"}, {"size": "44"}, {"size": "1"}]}}}, "dtype": {"type": "DT_FLOAT"}}}, {"name": "StatefulPartitionedCall/sequential_2_1/nasnet_mobile_1/separable_conv_2_normal_left2_0_1/separable_conv2d/merged_input", "op": "Const", "attr": {"value": {"tensor": {"dtype": "DT_FLOAT", "tensorShape": {"dim": [{"size": "1"}, {"size": "1"}, {"size": "44"}, {"size": "44"}]}}}, "dtype": {"type": "DT_FLOAT"}}}, {"name": "StatefulPartitionedCall/sequential_2_1/nasnet_mobile_1/separable_conv_2_bn_normal_left2_0_1/batchnorm/sub", "op": "Const", "attr": {"value": {"tensor": {"dtype": "DT_FLOAT", "tensorShape": {"dim": [{"size": "44"}]}}}, "dtype": {"type": "DT_FLOAT"}}}, {"name": "StatefulPartitionedCall/sequential_2_1/nasnet_mobile_1/separable_conv_1_normal_right2_0_1/separable_conv2d/ReadVariableOp", "op": "Const", "attr": {"value": {"tensor": {"dtype": "DT_FLOAT", "tensorShape": {"dim": [{"size": "3"}, {"size": "3"}, {"size": "44"}, {"size": "1"}]}}}, "dtype": {"type": "DT_FLOAT"}}}, {"name": "StatefulPartitionedCall/sequential_2_1/nasnet_mobile_1/separable_conv_1_normal_right2_0_1/separable_conv2d/merged_input", "op": "Const", "attr": {"value": {"tensor": {"dtype": "DT_FLOAT", "tensorShape": {"dim": [{"size": "1"}, {"size": "1"}, {"size": "44"}, {"size": "44"}]}}}, "dtype": {"type": "DT_FLOAT"}}}, {"name": "StatefulPartitionedCall/sequential_2_1/nasnet_mobile_1/separable_conv_1_bn_normal_right2_0_1/batchnorm/sub", "op": "Const", "attr": {"value": {"tensor": {"dtype": "DT_FLOAT", "tensorShape": {"dim": [{"size": "44"}]}}}, "dtype": {"type": "DT_FLOAT"}}}, {"name": "StatefulPartitionedCall/sequential_2_1/nasnet_mobile_1/separable_conv_2_normal_right2_0_1/separable_conv2d/ReadVariableOp", "op": "Const", "attr": {"value": {"tensor": {"dtype": "DT_FLOAT", "tensorShape": {"dim": [{"size": "3"}, {"size": "3"}, {"size": "44"}, {"size": "1"}]}}}, "dtype": {"type": "DT_FLOAT"}}}, {"name": "StatefulPartitionedCall/sequential_2_1/nasnet_mobile_1/separable_conv_2_normal_right2_0_1/separable_conv2d/merged_input", "op": "Const", "attr": {"value": {"tensor": {"dtype": "DT_FLOAT", "tensorShape": {"dim": [{"size": "1"}, {"size": "1"}, {"size": "44"}, {"size": "44"}]}}}, "dtype": {"type": "DT_FLOAT"}}}, {"name": "StatefulPartitionedCall/sequential_2_1/nasnet_mobile_1/separable_conv_2_bn_normal_right2_0_1/batchnorm/sub", "op": "Const", "attr": {"value": {"tensor": {"dtype": "DT_FLOAT", "tensorShape": {"dim": [{"size": "44"}]}}}, "dtype": {"type": "DT_FLOAT"}}}, {"name": "StatefulPartitionedCall/sequential_2_1/nasnet_mobile_1/adjust_conv_1_0_1/convolution/ReadVariableOp", "op": "Const", "attr": {"value": {"tensor": {"dtype": "DT_FLOAT", "tensorShape": {"dim": [{"size": "1"}, {"size": "1"}, {"size": "44"}, {"size": "22"}]}}}, "dtype": {"type": "DT_FLOAT"}}}, {"name": "StatefulPartitionedCall/sequential_2_1/nasnet_mobile_1/zero_padding2d_1_2/Const", "op": "Const", "attr": {"value": {"tensor": {"dtype": "DT_INT32", "tensorShape": {"dim": [{"size": "4"}, {"size": "2"}]}}}, "dtype": {"type": "DT_INT32"}}}, {"name": "StatefulPartitionedCall/sequential_2_1/nasnet_mobile_1/cropping2d_1_2/strided_slice/stack", "op": "Const", "attr": {"value": {"tensor": {"dtype": "DT_INT32", "tensorShape": {"dim": [{"size": "4"}]}}}, "dtype": {"type": "DT_INT32"}}}, {"name": "StatefulPartitionedCall/sequential_2_1/nasnet_mobile_1/cropping2d_1_2/strided_slice/stack_1", "op": "Const", "attr": {"value": {"tensor": {"dtype": "DT_INT32", "tensorShape": {"dim": [{"size": "4"}]}}}, "dtype": {"type": "DT_INT32"}}}, {"name": "StatefulPartitionedCall/sequential_2_1/nasnet_mobile_1/cropping2d_1_2/strided_slice/stack_2", "op": "Const", "attr": {"value": {"tensor": {"dtype": "DT_INT32", "tensorShape": {"dim": [{"size": "4"}]}}}, "dtype": {"type": "DT_INT32"}}}, {"name": "StatefulPartitionedCall/sequential_2_1/nasnet_mobile_1/adjust_conv_2_0_1/convolution/ReadVariableOp", "op": "Const", "attr": {"value": {"tensor": {"dtype": "DT_FLOAT", "tensorShape": {"dim": [{"size": "1"}, {"size": "1"}, {"size": "44"}, {"size": "22"}]}}}, "dtype": {"type": "DT_FLOAT"}}}, {"name": "StatefulPartitionedCall/sequential_2_1/nasnet_mobile_1/concatenate_1_2/concat/axis", "op": "Const", "attr": {"value": {"tensor": {"dtype": "DT_INT32", "tensorShape": {}}}, "dtype": {"type": "DT_INT32"}}}, {"name": "StatefulPartitionedCall/sequential_2_1/nasnet_mobile_1/adjust_bn_0_1/batchnorm/mul", "op": "Const", "attr": {"value": {"tensor": {"dtype": "DT_FLOAT", "tensorShape": {"dim": [{"size": "44"}]}}}, "dtype": {"type": "DT_FLOAT"}}}, {"name": "StatefulPartitionedCall/sequential_2_1/nasnet_mobile_1/adjust_bn_0_1/batchnorm/sub", "op": "Const", "attr": {"value": {"tensor": {"dtype": "DT_FLOAT", "tensorShape": {"dim": [{"size": "44"}]}}}, "dtype": {"type": "DT_FLOAT"}}}, {"name": "StatefulPartitionedCall/sequential_2_1/nasnet_mobile_1/separable_conv_1_normal_left5_0_1/separable_conv2d/ReadVariableOp", "op": "Const", "attr": {"value": {"tensor": {"dtype": "DT_FLOAT", "tensorShape": {"dim": [{"size": "3"}, {"size": "3"}, {"size": "44"}, {"size": "1"}]}}}, "dtype": {"type": "DT_FLOAT"}}}, {"name": "StatefulPartitionedCall/sequential_2_1/nasnet_mobile_1/separable_conv_1_normal_left5_0_1/separable_conv2d/merged_input", "op": "Const", "attr": {"value": {"tensor": {"dtype": "DT_FLOAT", "tensorShape": {"dim": [{"size": "1"}, {"size": "1"}, {"size": "44"}, {"size": "44"}]}}}, "dtype": {"type": "DT_FLOAT"}}}, {"name": "StatefulPartitionedCall/sequential_2_1/nasnet_mobile_1/separable_conv_1_bn_normal_left5_0_1/batchnorm/sub", "op": "Const", "attr": {"value": {"tensor": {"dtype": "DT_FLOAT", "tensorShape": {"dim": [{"size": "44"}]}}}, "dtype": {"type": "DT_FLOAT"}}}, {"name": "StatefulPartitionedCall/sequential_2_1/nasnet_mobile_1/separable_conv_2_normal_left5_0_1/separable_conv2d/ReadVariableOp", "op": "Const", "attr": {"value": {"tensor": {"dtype": "DT_FLOAT", "tensorShape": {"dim": [{"size": "3"}, {"size": "3"}, {"size": "44"}, {"size": "1"}]}}}, "dtype": {"type": "DT_FLOAT"}}}, {"name": "StatefulPartitionedCall/sequential_2_1/nasnet_mobile_1/separable_conv_2_normal_left5_0_1/separable_conv2d/merged_input", "op": "Const", "attr": {"value": {"tensor": {"dtype": "DT_FLOAT", "tensorShape": {"dim": [{"size": "1"}, {"size": "1"}, {"size": "44"}, {"size": "44"}]}}}, "dtype": {"type": "DT_FLOAT"}}}, {"name": "StatefulPartitionedCall/sequential_2_1/nasnet_mobile_1/separable_conv_2_bn_normal_left5_0_1/batchnorm/sub", "op": "Const", "attr": {"value": {"tensor": {"dtype": "DT_FLOAT", "tensorShape": {"dim": [{"size": "44"}]}}}, "dtype": {"type": "DT_FLOAT"}}}, {"name": "StatefulPartitionedCall/sequential_2_1/nasnet_mobile_1/separable_conv_1_pad_reduction_right3_stem_2_1/Const", "op": "Const", "attr": {"value": {"tensor": {"dtype": "DT_INT32", "tensorShape": {"dim": [{"size": "4"}, {"size": "2"}]}}}, "dtype": {"type": "DT_INT32"}}}, {"name": "StatefulPartitionedCall/sequential_2_1/nasnet_mobile_1/separable_conv_1_reduction_right3_stem_2_1/separable_conv2d/ReadVariableOp", "op": "Const", "attr": {"value": {"tensor": {"dtype": "DT_FLOAT", "tensorShape": {"dim": [{"size": "5"}, {"size": "5"}, {"size": "22"}, {"size": "1"}]}}}, "dtype": {"type": "DT_FLOAT"}}}, {"name": "StatefulPartitionedCall/sequential_2_1/nasnet_mobile_1/separable_conv_1_reduction_right3_stem_2_1/separable_conv2d/merged_input", "op": "Const", "attr": {"value": {"tensor": {"dtype": "DT_FLOAT", "tensorShape": {"dim": [{"size": "1"}, {"size": "1"}, {"size": "22"}, {"size": "22"}]}}}, "dtype": {"type": "DT_FLOAT"}}}, {"name": "StatefulPartitionedCall/sequential_2_1/nasnet_mobile_1/separable_conv_1_bn_reduction_right3_stem_2_1/batchnorm/sub", "op": "Const", "attr": {"value": {"tensor": {"dtype": "DT_FLOAT", "tensorShape": {"dim": [{"size": "22"}]}}}, "dtype": {"type": "DT_FLOAT"}}}, {"name": "StatefulPartitionedCall/sequential_2_1/nasnet_mobile_1/separable_conv_2_reduction_right3_stem_2_1/separable_conv2d/ReadVariableOp", "op": "Const", "attr": {"value": {"tensor": {"dtype": "DT_FLOAT", "tensorShape": {"dim": [{"size": "5"}, {"size": "5"}, {"size": "22"}, {"size": "1"}]}}}, "dtype": {"type": "DT_FLOAT"}}}, {"name": "StatefulPartitionedCall/sequential_2_1/nasnet_mobile_1/separable_conv_2_reduction_right3_stem_2_1/separable_conv2d/merged_input", "op": "Const", "attr": {"value": {"tensor": {"dtype": "DT_FLOAT", "tensorShape": {"dim": [{"size": "1"}, {"size": "1"}, {"size": "22"}, {"size": "22"}]}}}, "dtype": {"type": "DT_FLOAT"}}}, {"name": "StatefulPartitionedCall/sequential_2_1/nasnet_mobile_1/separable_conv_2_bn_reduction_right3_stem_2_1/batchnorm/sub", "op": "Const", "attr": {"value": {"tensor": {"dtype": "DT_FLOAT", "tensorShape": {"dim": [{"size": "22"}]}}}, "dtype": {"type": "DT_FLOAT"}}}, {"name": "StatefulPartitionedCall/sequential_2_1/nasnet_mobile_1/separable_conv_1_pad_reduction_right2_stem_2_1/Const", "op": "Const", "attr": {"value": {"tensor": {"dtype": "DT_INT32", "tensorShape": {"dim": [{"size": "4"}, {"size": "2"}]}}}, "dtype": {"type": "DT_INT32"}}}, {"name": "StatefulPartitionedCall/sequential_2_1/nasnet_mobile_1/separable_conv_1_reduction_right2_stem_2_1/separable_conv2d/ReadVariableOp", "op": "Const", "attr": {"value": {"tensor": {"dtype": "DT_FLOAT", "tensorShape": {"dim": [{"size": "7"}, {"size": "7"}, {"size": "22"}, {"size": "1"}]}}}, "dtype": {"type": "DT_FLOAT"}}}, {"name": "StatefulPartitionedCall/sequential_2_1/nasnet_mobile_1/separable_conv_1_reduction_right2_stem_2_1/separable_conv2d/merged_input", "op": "Const", "attr": {"value": {"tensor": {"dtype": "DT_FLOAT", "tensorShape": {"dim": [{"size": "1"}, {"size": "1"}, {"size": "22"}, {"size": "22"}]}}}, "dtype": {"type": "DT_FLOAT"}}}, {"name": "StatefulPartitionedCall/sequential_2_1/nasnet_mobile_1/separable_conv_1_bn_reduction_right2_stem_2_1/batchnorm/sub", "op": "Const", "attr": {"value": {"tensor": {"dtype": "DT_FLOAT", "tensorShape": {"dim": [{"size": "22"}]}}}, "dtype": {"type": "DT_FLOAT"}}}, {"name": "StatefulPartitionedCall/sequential_2_1/nasnet_mobile_1/separable_conv_2_reduction_right2_stem_2_1/separable_conv2d/ReadVariableOp", "op": "Const", "attr": {"value": {"tensor": {"dtype": "DT_FLOAT", "tensorShape": {"dim": [{"size": "7"}, {"size": "7"}, {"size": "22"}, {"size": "1"}]}}}, "dtype": {"type": "DT_FLOAT"}}}, {"name": "StatefulPartitionedCall/sequential_2_1/nasnet_mobile_1/separable_conv_2_reduction_right2_stem_2_1/separable_conv2d/merged_input", "op": "Const", "attr": {"value": {"tensor": {"dtype": "DT_FLOAT", "tensorShape": {"dim": [{"size": "1"}, {"size": "1"}, {"size": "22"}, {"size": "22"}]}}}, "dtype": {"type": "DT_FLOAT"}}}, {"name": "StatefulPartitionedCall/sequential_2_1/nasnet_mobile_1/separable_conv_2_bn_reduction_right2_stem_2_1/batchnorm/sub", "op": "Const", "attr": {"value": {"tensor": {"dtype": "DT_FLOAT", "tensorShape": {"dim": [{"size": "22"}]}}}, "dtype": {"type": "DT_FLOAT"}}}, {"name": "StatefulPartitionedCall/sequential_2_1/nasnet_mobile_1/separable_conv_1_pad_reduction_left1_stem_2_1/Const", "op": "Const", "attr": {"value": {"tensor": {"dtype": "DT_INT32", "tensorShape": {"dim": [{"size": "4"}, {"size": "2"}]}}}, "dtype": {"type": "DT_INT32"}}}, {"name": "StatefulPartitionedCall/sequential_2_1/nasnet_mobile_1/separable_conv_1_reduction_left1_stem_2_1/separable_conv2d/ReadVariableOp", "op": "Const", "attr": {"value": {"tensor": {"dtype": "DT_FLOAT", "tensorShape": {"dim": [{"size": "5"}, {"size": "5"}, {"size": "22"}, {"size": "1"}]}}}, "dtype": {"type": "DT_FLOAT"}}}, {"name": "StatefulPartitionedCall/sequential_2_1/nasnet_mobile_1/separable_conv_1_reduction_left1_stem_2_1/separable_conv2d/merged_input", "op": "Const", "attr": {"value": {"tensor": {"dtype": "DT_FLOAT", "tensorShape": {"dim": [{"size": "1"}, {"size": "1"}, {"size": "22"}, {"size": "22"}]}}}, "dtype": {"type": "DT_FLOAT"}}}, {"name": "StatefulPartitionedCall/sequential_2_1/nasnet_mobile_1/separable_conv_1_bn_reduction_left1_stem_2_1/batchnorm/sub", "op": "Const", "attr": {"value": {"tensor": {"dtype": "DT_FLOAT", "tensorShape": {"dim": [{"size": "22"}]}}}, "dtype": {"type": "DT_FLOAT"}}}, {"name": "StatefulPartitionedCall/sequential_2_1/nasnet_mobile_1/separable_conv_2_reduction_left1_stem_2_1/separable_conv2d/ReadVariableOp", "op": "Const", "attr": {"value": {"tensor": {"dtype": "DT_FLOAT", "tensorShape": {"dim": [{"size": "5"}, {"size": "5"}, {"size": "22"}, {"size": "1"}]}}}, "dtype": {"type": "DT_FLOAT"}}}, {"name": "StatefulPartitionedCall/sequential_2_1/nasnet_mobile_1/separable_conv_2_reduction_left1_stem_2_1/separable_conv2d/merged_input", "op": "Const", "attr": {"value": {"tensor": {"dtype": "DT_FLOAT", "tensorShape": {"dim": [{"size": "1"}, {"size": "1"}, {"size": "22"}, {"size": "22"}]}}}, "dtype": {"type": "DT_FLOAT"}}}, {"name": "StatefulPartitionedCall/sequential_2_1/nasnet_mobile_1/separable_conv_2_bn_reduction_left1_stem_2_1/batchnorm/sub", "op": "Const", "attr": {"value": {"tensor": {"dtype": "DT_FLOAT", "tensorShape": {"dim": [{"size": "22"}]}}}, "dtype": {"type": "DT_FLOAT"}}}, {"name": "StatefulPartitionedCall/sequential_2_1/nasnet_mobile_1/adjust_conv_1_stem_2_1/convolution/ReadVariableOp", "op": "Const", "attr": {"value": {"tensor": {"dtype": "DT_FLOAT", "tensorShape": {"dim": [{"size": "1"}, {"size": "1"}, {"size": "32"}, {"size": "11"}]}}}, "dtype": {"type": "DT_FLOAT"}}}, {"name": "StatefulPartitionedCall/sequential_2_1/nasnet_mobile_1/zero_padding2d_1/Const", "op": "Const", "attr": {"value": {"tensor": {"dtype": "DT_INT32", "tensorShape": {"dim": [{"size": "4"}, {"size": "2"}]}}}, "dtype": {"type": "DT_INT32"}}}, {"name": "StatefulPartitionedCall/sequential_2_1/nasnet_mobile_1/cropping2d_1/strided_slice/stack", "op": "Const", "attr": …
type": "float32"}, {"name": "StatefulPartitionedCall/sequential_2_1/nasnet_mobile_1/separable_conv_1_reduction_right3_reduce_4_1/separable_conv2d/merged_input", "shape": [1, 1, 88, 88], "dtype": "float32"}, {"name": "StatefulPartitionedCall/sequential_2_1/nasnet_mobile_1/separable_conv_1_bn_reduction_right3_reduce_4_1/batchnorm/sub", "shape": [88], "dtype": "float32"}, {"name": "StatefulPartitionedCall/sequential_2_1/nasnet_mobile_1/separable_conv_2_reduction_right3_reduce_4_1/separable_conv2d/ReadVariableOp", "shape": [5, 5, 88, 1], "dtype": "float32"}, {"name": "StatefulPartitionedCall/sequential_2_1/nasnet_mobile_1/separable_conv_2_reduction_right3_reduce_4_1/separable_conv2d/merged_input", "shape": [1, 1, 88, 88], "dtype": "float32"}, {"name": "StatefulPartitionedCall/sequential_2_1/nasnet_mobile_1/separable_conv_2_bn_reduction_right3_reduce_4_1/batchnorm/sub", "shape": [88], "dtype": "float32"}, {"name": "StatefulPartitionedCall/sequential_2_1/nasnet_mobile_1/separable_conv_1_pad_reduction_right2_reduce_4_1/Const", "shape": [4, 2], "dtype": "int32"}, {"name": "StatefulPartitionedCall/sequential_2_1/nasnet_mobile_1/separable_conv_1_reduction_right2_reduce_4_1/separable_conv2d/ReadVariableOp", "shape": [7, 7, 88, 1], "dtype": "float32"}, {"name": "StatefulPartitionedCall/sequential_2_1/nasnet_mobile_1/separable_conv_1_reduction_right2_reduce_4_1/separable_conv2d/merged_input", "shape": [1, 1, 88, 88], "dtype": "float32"}, {"name": "StatefulPartitionedCall/sequential_2_1/nasnet_mobile_1/separable_conv_1_bn_reduction_right2_reduce_4_1/batchnorm/sub", "shape": [88], "dtype": "float32"}, {"name": "StatefulPartitionedCall/sequential_2_1/nasnet_mobile_1/separable_conv_2_reduction_right2_reduce_4_1/separable_conv2d/ReadVariableOp", "shape": [7, 7, 88, 1], "dtype": "float32"}, {"name": "StatefulPartitionedCall/sequential_2_1/nasnet_mobile_1/separable_conv_2_reduction_right2_reduce_4_1/separable_conv2d/merged_input", "shape": [1, 1, 88, 88], "dtype": "float32"}, {"name": "StatefulPartitionedCall/sequential_2_1/nasnet_mobile_1/separable_conv_2_bn_reduction_right2_reduce_4_1/batchnorm/sub", "shape": [88], "dtype": "float32"}, {"name": "StatefulPartitionedCall/sequential_2_1/nasnet_mobile_1/separable_conv_1_pad_reduction_left1_reduce_4_1/Const", "shape": [4, 2], "dtype": "int32"}, {"name": "StatefulPartitionedCall/sequential_2_1/nasnet_mobile_1/separable_conv_1_reduction_left1_reduce_4_1/separable_conv2d/ReadVariableOp", "shape": [5, 5, 88, 1], "dtype": "float32"}, {"name": "StatefulPartitionedCall/sequential_2_1/nasnet_mobile_1/separable_conv_1_reduction_left1_reduce_4_1/separable_conv2d/merged_input", "shape": [1, 1, 88, 88], "dtype": "float32"}, {"name": "StatefulPartitionedCall/sequential_2_1/nasnet_mobile_1/separable_conv_1_bn_reduction_left1_reduce_4_1/batchnorm/sub", "shape": [88], "dtype": "float32"}, {"name": "StatefulPartitionedCall/sequential_2_1/nasnet_mobile_1/separable_conv_2_reduction_left1_reduce_4_1/separable_conv2d/ReadVariableOp", "shape": [5, 5, 88, 1], "dtype": "float32"}, {"name": "StatefulPartitionedCall/sequential_2_1/nasnet_mobile_1/separable_conv_2_reduction_left1_reduce_4_1/separable_conv2d/merged_input", "shape": [1, 1, 88, 88], "dtype": "float32"}, {"name": "StatefulPartitionedCall/sequential_2_1/nasnet_mobile_1/separable_conv_2_bn_reduction_left1_reduce_4_1/batchnorm/sub", "shape": [88], "dtype": "float32"}, {"name": "StatefulPartitionedCall/sequential_2_1/nasnet_mobile_1/adjust_conv_projection_reduce_4_1/convolution/merged_input", "shape": [1, 1, 264, 88], "dtype": "float32"}, {"name": "StatefulPartitionedCall/sequential_2_1/nasnet_mobile_1/adjust_bn_reduce_4_1/batchnorm/sub", "shape": [88], "dtype": "float32"}, {"name": "StatefulPartitionedCall/sequential_2_1/nasnet_mobile_1/separable_conv_1_pad_reduction_right1_reduce_4_1/Const", "shape": [4, 2], "dtype": "int32"}, {"name": "StatefulPartitionedCall/sequential_2_1/nasnet_mobile_1/separable_conv_1_reduction_right1_reduce_4_1/separable_conv2d/ReadVariableOp", "shape": [7, 7, 88, 1], "dtype": "float32"}, {"name": "StatefulPartitionedCall/sequential_2_1/nasnet_mobile_1/separable_conv_1_reduction_right1_reduce_4_1/separable_conv2d/merged_input", "shape": [1, 1, 88, 88], "dtype": "float32"}, {"name": "StatefulPartitionedCall/sequential_2_1/nasnet_mobile_1/separable_conv_1_bn_reduction_right1_reduce_4_1/batchnorm/sub", "shape": [88], "dtype": "float32"}, {"name": "StatefulPartitionedCall/sequential_2_1/nasnet_mobile_1/separable_conv_2_reduction_right1_reduce_4_1/separable_conv2d/ReadVariableOp", "shape": [7, 7, 88, 1], "dtype": "float32"}, {"name": "StatefulPartitionedCall/sequential_2_1/nasnet_mobile_1/separable_conv_2_reduction_right1_reduce_4_1/separable_conv2d/merged_input", "shape": [1, 1, 88, 88], "dtype": "float32"}, {"name": "StatefulPartitionedCall/sequential_2_1/nasnet_mobile_1/separable_conv_2_bn_reduction_right1_reduce_4_1/batchnorm/sub", "shape": [88], "dtype": "float32"}, {"name": "StatefulPartitionedCall/sequential_2_1/nasnet_mobile_1/separable_conv_1_reduction_left4_reduce_4_1/separable_conv2d/ReadVariableOp", "shape": [3, 3, 88, 1], "dtype": "float32"}, {"name": "StatefulPartitionedCall/sequential_2_1/nasnet_mobile_1/separable_conv_1_reduction_left4_reduce_4_1/separable_conv2d/merged_input", "shape": [1, 1, 88, 88], "dtype": "float32"}, {"name": "StatefulPartitionedCall/sequential_2_1/nasnet_mobile_1/separable_conv_1_bn_reduction_left4_reduce_4_1/batchnorm/sub", "shape": [88], "dtype": "float32"}, {"name": "StatefulPartitionedCall/sequential_2_1/nasnet_mobile_1/separable_conv_2_reduction_left4_reduce_4_1/separable_conv2d/ReadVariableOp", "shape": [3, 3, 88, 1], "dtype": "float32"}, {"name": "StatefulPartitionedCall/sequential_2_1/nasnet_mobile_1/separable_conv_2_reduction_left4_reduce_4_1/separable_conv2d/merged_input", "shape": [1, 1, 88, 88], "dtype": "float32"}, {"name": "StatefulPartitionedCall/sequential_2_1/nasnet_mobile_1/separable_conv_2_bn_reduction_left4_reduce_4_1/batchnorm/sub", "shape": [88], "dtype": "float32"}, {"name": "StatefulPartitionedCall/sequential_2_1/nasnet_mobile_1/separable_conv_1_normal_left1_3_1/separable_conv2d/ReadVariableOp", "shape": [5, 5, 44, 1], "dtype": "float32"}, {"name": "StatefulPartitionedCall/sequential_2_1/nasnet_mobile_1/separable_conv_1_normal_left1_3_1/separable_conv2d/merged_input", "shape": [1, 1, 44, 44], "dtype": "float32"}, {"name": "StatefulPartitionedCall/sequential_2_1/nasnet_mobile_1/separable_conv_1_bn_normal_left1_3_1/batchnorm/sub", "shape": [44], "dtype": "float32"}, {"name": "StatefulPartitionedCall/sequential_2_1/nasnet_mobile_1/separable_conv_2_normal_left1_3_1/separable_conv2d/ReadVariableOp", "shape": [5, 5, 44, 1], "dtype": "float32"}, {"name": "StatefulPartitionedCall/sequential_2_1/nasnet_mobile_1/separable_conv_2_normal_left1_3_1/separable_conv2d/merged_input", "shape": [1, 1, 44, 44], "dtype": "float32"}, {"name": "StatefulPartitionedCall/sequential_2_1/nasnet_mobile_1/separable_conv_2_bn_normal_left1_3_1/batchnorm/sub", "shape": [44], "dtype": "float32"}, {"name": "StatefulPartitionedCall/sequential_2_1/nasnet_mobile_1/separable_conv_1_normal_right1_3_1/separable_conv2d/ReadVariableOp", "shape": [3, 3, 44, 1], "dtype": "float32"}, {"name": "StatefulPartitionedCall/sequential_2_1/nasnet_mobile_1/separable_conv_1_normal_right1_3_1/separable_conv2d/merged_input", "shape": [1, 1, 44, 44], "dtype": "float32"}, {"name": "StatefulPartitionedCall/sequential_2_1/nasnet_mobile_1/separable_conv_1_bn_normal_right1_3_1/batchnorm/sub", "shape": [44], "dtype": "float32"}, {"name": "StatefulPartitionedCall/sequential_2_1/nasnet_mobile_1/separable_conv_2_normal_right1_3_1/separable_conv2d/ReadVariableOp", "shape": [3, 3, 44, 1], "dtype": "float32"}, {"name": "StatefulPartitionedCall/sequential_2_1/nasnet_mobile_1/separable_conv_2_normal_right1_3_1/separable_conv2d/merged_input", "shape": [1, 1, 44, 44], "dtype": "float32"}, {"name": "StatefulPartitionedCall/sequential_2_1/nasnet_mobile_1/separable_conv_2_bn_normal_right1_3_1/batchnorm/sub", "shape": [44], "dtype": "float32"}, {"name": "StatefulPartitionedCall/sequential_2_1/nasnet_mobile_1/separable_conv_1_normal_left2_3_1/separable_conv2d/ReadVariableOp", "shape": [5, 5, 44, 1], "dtype": "float32"}, {"name": "StatefulPartitionedCall/sequential_2_1/nasnet_mobile_1/separable_conv_1_normal_left2_3_1/separable_conv2d/merged_input", "shape": [1, 1, 44, 44], "dtype": "float32"}, {"name": "StatefulPartitionedCall/sequential_2_1/nasnet_mobile_1/separable_conv_1_bn_normal_left2_3_1/batchnorm/sub", "shape": [44], "dtype": "float32"}, {"name": "StatefulPartitionedCall/sequential_2_1/nasnet_mobile_1/separable_conv_2_normal_left2_3_1/separable_conv2d/ReadVariableOp", "shape": [5, 5, 44, 1], "dtype": "float32"}, {"name": "StatefulPartitionedCall/sequential_2_1/nasnet_mobile_1/separable_conv_2_normal_left2_3_1/separable_conv2d/merged_input", "shape": [1, 1, 44, 44], "dtype": "float32"}, {"name": "StatefulPartitionedCall/sequential_2_1/nasnet_mobile_1/separable_conv_2_bn_normal_left2_3_1/batchnorm/sub", "shape": [44], "dtype": "float32"}, {"name": "StatefulPartitionedCall/sequential_2_1/nasnet_mobile_1/separable_conv_1_normal_right2_3_1/separable_conv2d/ReadVariableOp", "shape": [3, 3, 44, 1], "dtype": "float32"}, {"name": "StatefulPartitionedCall/sequential_2_1/nasnet_mobile_1/separable_conv_1_normal_right2_3_1/separable_conv2d/merged_input", "shape": [1, 1, 44, 44], "dtype": "float32"}, {"name": "StatefulPartitionedCall/sequential_2_1/nasnet_mobile_1/separable_conv_1_bn_normal_right2_3_1/batchnorm/sub", "shape": [44], "dtype": "float32"}, {"name": "StatefulPartitionedCall/sequential_2_1/nasnet_mobile_1/separable_conv_2_normal_right2_3_1/separable_conv2d/ReadVariableOp", "shape": [3, 3, 44, 1], "dtype": "float32"}, {"name": "StatefulPartitionedCall/sequential_2_1/nasnet_mobile_1/separable_conv_2_normal_right2_3_1/separable_conv2d/merged_input", "shape": [1, 1, 44, 44], "dtype": "float32"}, {"name": "StatefulPartitionedCall/sequential_2_1/nasnet_mobile_1/separable_conv_2_bn_normal_right2_3_1/batchnorm/sub", "shape": [44], "dtype": "float32"}, {"name": "StatefulPartitionedCall/sequential_2_1/nasnet_mobile_1/adjust_conv_projection_3_1/convolution/merged_input", "shape": [1, 1, 264, 44], "dtype": "float32"}, {"name": "StatefulPartitionedCall/sequential_2_1/nasnet_mobile_1/adjust_bn_3_1/batchnorm/sub", "shape": [44], "dtype": "float32"}, {"name": "StatefulPartitionedCall/sequential_2_1/nasnet_mobile_1/separable_conv_1_normal_left5_3_1/separable_conv2d/ReadVariableOp", "shape": [3, 3, 44, 1], "dtype": "float32"}, {"name": "StatefulPartitionedCall/sequential_2_1/nasnet_mobile_1/separable_conv_1_normal_left5_3_1/separable_conv2d/merged_input", "shape": [1, 1, 44, 44], "dtype": "float32"}, {"name": "StatefulPartitionedCall/sequential_2_1/nasnet_mobile_1/separable_conv_1_bn_normal_left5_3_1/batchnorm/sub", "shape": [44], "dtype": "float32"}, {"name": "StatefulPartitionedCall/sequential_2_1/nasnet_mobile_1/separable_conv_2_normal_left5_3_1/separable_conv2d/ReadVariableOp", "shape": [3, 3, 44, 1], "dtype": "float32"}, {"name": "StatefulPartitionedCall/sequential_2_1/nasnet_mobile_1/separable_conv_2_normal_left5_3_1/separable_conv2d/merged_input", "shape": [1, 1, 44, 44], "dtype": "float32"}, {"name": "StatefulPartitionedCall/sequential_2_1/nasnet_mobile_1/separable_conv_2_bn_normal_left5_3_1/batchnorm/sub", "shape": [44], "dtype": "float32"}, {"name": "StatefulPartitionedCall/sequential_2_1/nasnet_mobile_1/separable_conv_1_normal_left1_2_1/separable_conv2d/ReadVariableOp", "shape": [5, 5, 44, 1], "dtype": "float32"}, {"name": "StatefulPartitionedCall/sequential_2_1/nasnet_mobile_1/separable_conv_1_normal_left1_2_1/separable_conv2d/merged_input", "shape": [1, 1, 44, 44], "dtype": "float32"}, {"name": "StatefulPartitionedCall/sequential_2_1/nasnet_mobile_1/separable_conv_1_bn_normal_left1_2_1/batchnorm/sub", "shape": [44], "dtype": "float32"}, {"name": "StatefulPartitionedCall/sequential_2_1/nasnet_mobile_1/separable_conv_2_normal_left1_2_1/separable_conv2d/ReadVariableOp", "shape": [5, 5, 44, 1], "dtype": "float32"}, {"name": "StatefulPartitionedCall/sequential_2_1/nasnet_mobile_1/separable_conv_2_normal_left1_2_1/separable_conv2d/merged_input", "shape": [1, 1, 44, 44], "dtype": "float32"}, {"name": "StatefulPartitionedCall/sequential_2_1/nasnet_mobile_1/separable_conv_2_bn_normal_left1_2_1/batchnorm/sub", "shape": [44], "dtype": "float32"}, {"name": "StatefulPartitionedCall/sequential_2_1/nasnet_mobile_1/separable_conv_1_normal_right1_2_1/separable_conv2d/ReadVariableOp", "shape": [3, 3, 44, 1], "dtype": "float32"}, {"name": "StatefulPartitionedCall/sequential_2_1/nasnet_mobile_1/separable_conv_1_normal_right1_2_1/separable_conv2d/merged_input", "shape": [1, 1, 44, 44], "dtype": "float32"}, {"name": "StatefulPartitionedCall/sequential_2_1/nasnet_mobile_1/separable_conv_1_bn_normal_right1_2_1/batchnorm/sub", "shape": [44], "dtype": "float32"}, {"name": "StatefulPartitionedCall/sequential_2_1/nasnet_mobile_1/separable_conv_2_normal_right1_2_1/separable_conv2d/ReadVariableOp", "shape": [3, 3, 44, 1], "dtype": "float32"}, {"name": "StatefulPartitionedCall/sequential_2_1/nasnet_mobile_1/separable_conv_2_normal_right1_2_1/separable_conv2d/merged_input", "shape": [1, 1, 44, 44], "dtype": "float32"}, {"name": "StatefulPartitionedCall/sequential_2_1/nasnet_mobile_1/separable_conv_2_bn_normal_right1_2_1/batchnorm/sub", "shape": [44], "dtype": "float32"}, {"name": "StatefulPartitionedCall/sequential_2_1/nasnet_mobile_1/separable_conv_1_normal_left2_2_1/separable_conv2d/ReadVariableOp", "shape": [5, 5, 44, 1], "dtype": "float32"}, {"name": "StatefulPartitionedCall/sequential_2_1/nasnet_mobile_1/separable_conv_1_normal_left2_2_1/separable_conv2d/merged_input", "shape": [1, 1, 44, 44], "dtype": "float32"}, {"name": "StatefulPartitionedCall/sequential_2_1/nasnet_mobile_1/separable_conv_1_bn_normal_left2_2_1/batchnorm/sub", "shape": [44], "dtype": "float32"}, {"name": "StatefulPartitionedCall/sequential_2_1/nasnet_mobile_1/separable_conv_2_normal_left2_2_1/separable_conv2d/ReadVariableOp", "shape": [5, 5, 44, 1], "dtype": "float32"}, {"name": "StatefulPartitionedCall/sequential_2_1/nasnet_mobile_1/separable_conv_2_normal_left2_2_1/separable_conv2d/merged_input", "shape": [1, 1, 44, 44], "dtype": "float32"}, {"name": "StatefulPartitionedCall/sequential_2_1/nasnet_mobile_1/separable_conv_2_bn_normal_left2_2_1/batchnorm/sub", "shape": [44], "dtype": "float32"}, {"name": "StatefulPartitionedCall/sequential_2_1/nasnet_mobile_1/separable_conv_1_normal_right2_2_1/separable_conv2d/ReadVariableOp", "shape": [3, 3, 44, 1], "dtype": "float32"}, {"name": "StatefulPartitionedCall/sequential_2_1/nasnet_mobile_1/separable_conv_1_normal_right2_2_1/separable_conv2d/merged_input", "shape": [1, 1, 44, 44], "dtype": "float32"}, {"name": "StatefulPartitionedCall/sequential_2_1/nasnet_mobile_1/separable_conv_1_bn_normal_right2_2_1/batchnorm/sub", "shape": [44], "dtype": "float32"}, {"name": "StatefulPartitionedCall/sequential_2_1/nasnet_mobile_1/separable_conv_2_normal_right2_2_1/separable_conv2d/ReadVariableOp", "shape": [3, 3, 44, 1], "dtype": "float32"}, {"name": "StatefulPartitionedCall/sequential_2_1/nasnet_mobile_1/separable_conv_2_normal_right2_2_1/separable_conv2d/merged_input", "shape": [1, 1, 44, 44], "dtype": "float32"}, {"name": "StatefulPartitionedCall/sequential_2_1/nasnet_mobile_1/separable_conv_2_bn_normal_right2_2_1/batchnorm/sub", "shape": [44], "dtype": "float32"}, {"name": "StatefulPartitionedCall/sequential_2_1/nasnet_mobile_1/adjust_conv_projection_2_1/convolution/merged_input", "shape": [1, 1, 264, 44], "dtype": "float32"}, {"name": "StatefulPartitionedCall/sequential_2_1/nasnet_mobile_1/adjust_bn_2_1/batchnorm/sub", "shape": [44], "dtype": "float32"}, {"name": "StatefulPartitionedCall/sequential_2_1/nasnet_mobile_1/separable_conv_1_normal_left5_2_1/separable_conv2d/ReadVariableOp", "shape": [3, 3, 44, 1], "dtype": "float32"}, {"name": "StatefulPartitionedCall/sequential_2_1/nasnet_mobile_1/separable_conv_1_normal_left5_2_1/separable_conv2d/merged_input", "shape": [1, 1, 44, 44], "dtype": "float32"}, {"name": "StatefulPartitionedCall/sequential_2_1/nasnet_mobile_1/separable_conv_1_bn_normal_left5_2_1/batchnorm/sub", "shape": [44], "dtype": "float32"}, {"name": "StatefulPartitionedCall/sequential_2_1/nasnet_mobile_1/separable_conv_2_normal_left5_2_1/separable_conv2d/ReadVariableOp", "shape": [3, 3, 44, 1], "dtype": "float32"}, {"name": "StatefulPartitionedCall/sequential_2_1/nasnet_mobile_1/separable_conv_2_normal_left5_2_1/separable_conv2d/merged_input", "shape": [1, 1, 44, 44], "dtype": "float32"}, {"name": "StatefulPartitionedCall/sequential_2_1/nasnet_mobile_1/separable_conv_2_bn_normal_left5_2_1/batchnorm/sub", "shape": [44], "dtype": "float32"}, {"name": "StatefulPartitionedCall/sequential_2_1/nasnet_mobile_1/separable_conv_1_normal_left1_1_1/separable_conv2d/ReadVariableOp", "shape": [5, 5, 44, 1], "dtype": "float32"}, {"name": "StatefulPartitionedCall/sequential_2_1/nasnet_mobile_1/separable_conv_1_normal_left1_1_1/separable_conv2d/merged_input", "shape": [1, 1, 44, 44], "dtype": "float32"}, {"name": "StatefulPartitionedCall/sequential_2_1/nasnet_mobile_1/separable_conv_1_bn_normal_left1_1_1/batchnorm/sub", "shape": [44], "dtype": "float32"}, {"name": "StatefulPartitionedCall/sequential_2_1/nasnet_mobile_1/separable_conv_2_normal_left1_1_1/separable_conv2d/ReadVariableOp", "shape": [5, 5, 44, 1], "dtype": "float32"}, {"name": "StatefulPartitionedCall/sequential_2_1/nasnet_mobile_1/separable_conv_2_normal_left1_1_1/separable_conv2d/merged_input", "shape": [1, 1, 44, 44], "dtype": "float32"}, {"name": "StatefulPartitionedCall/sequential_2_1/nasnet_mobile_1/separable_conv_2_bn_normal_left1_1_1/batchnorm/sub", "shape": [44], "dtype": "float32"}, {"name": "StatefulPartitionedCall/sequential_2_1/nasnet_mobile_1/separable_conv_1_normal_right1_1_1/separable_conv2d/ReadVariableOp", "shape": [3, 3, 44, 1], "dtype": "float32"}, {"name": "StatefulPartitionedCall/sequential_2_1/nasnet_mobile_1/separable_conv_1_normal_right1_1_1/separable_conv2d/merged_input", "shape": [1, 1, 44, 44], "dtype": "float32"}, {"name": "StatefulPartitionedCall/sequential_2_1/nasnet_mobile_1/separable_conv_1_bn_normal_right1_1_1/batchnorm/sub", "shape": [44], "dtype": "float32"}, {"name": "StatefulPartitionedCall/sequential_2_1/nasnet_mobile_1/separable_conv_2_normal_right1_1_1/separable_conv2d/ReadVariableOp", "shape": [3, 3, 44, 1], "dtype": "float32"}, {"name": "StatefulPartitionedCall/sequential_2_1/nasnet_mobile_1/separable_conv_2_normal_right1_1_1/separable_conv2d/merged_input", "shape": [1, 1, 44, 44], "dtype": "float32"}, {"name": "StatefulPartitionedCall/sequential_2_1/nasnet_mobile_1/separable_conv_2_bn_normal_right1_1_1/batchnorm/sub", "shape": [44], "dtype": "float32"}, {"name": "StatefulPartitionedCall/sequential_2_1/nasnet_mobile_1/separable_conv_1_normal_left2_1_1/separable_conv2d/ReadVariableOp", "shape": [5, 5, 44, 1], "dtype": "float32"}, {"name": "StatefulPartitionedCall/sequential_2_1/nasnet_mobile_1/separable_conv_1_normal_left2_1_1/separable_conv2d/merged_input", "shape": [1, 1, 44, 44], "dtype": "float32"}, {"name": "StatefulPartitionedCall/sequential_2_1/nasnet_mobile_1/separable_conv_1_bn_normal_left2_1_1/batchnorm/sub", "shape": [44], "dtype": "float32"}, {"name": "StatefulPartitionedCall/sequential_2_1/nasnet_mobile_1/separable_conv_2_normal_left2_1_1/separable_conv2d/ReadVariableOp", "shape": [5, 5, 44, 1], "dtype": "float32"}, {"name": "StatefulPartitionedCall/sequential_2_1/nasnet_mobile_1/separable_conv_2_normal_left2_1_1/separable_conv2d/merged_input", "shape": [1, 1, 44, 44], "dtype": "float32"}, {"name": "StatefulPartitionedCall/sequential_2_1/nasnet_mobile_1/separable_conv_2_bn_normal_left2_1_1/batchnorm/sub", "shape": [44], "dtype": "float32"}, {"name": "StatefulPartitionedCall/sequential_2_1/nasnet_mobile_1/separable_conv_1_normal_right2_1_1/separable_conv2d/ReadVariableOp", "shape": [3, 3, 44, 1], "dtype": "float32"}, {"name": "StatefulPartitionedCall/sequential_2_1/nasnet_mobile_1/separable_conv_1_normal_right2_1_1/separable_conv2d/merged_input", "shape": [1, 1, 44, 44], "dtype": "float32"}, {"name": "StatefulPartitionedCall/sequential_2_1/nasnet_mobile_1/separable_conv_1_bn_normal_right2_1_1/batchnorm/sub", "shape": [44], "dtype": "float32"}, {"name": "StatefulPartitionedCall/sequential_2_1/nasnet_mobile_1/separable_conv_2_normal_right2_1_1/separable_conv2d/ReadVariableOp", "shape": [3, 3, 44, 1], "dtype": "float32"}, {"name": "StatefulPartitionedCall/sequential_2_1/nasnet_mobile_1/separable_conv_2_normal_right2_1_1/separable_conv2d/merged_input", "shape": [1, 1, 44, 44], "dtype": "float32"}, {"name": "StatefulPartitionedCall/sequential_2_1/nasnet_mobile_1/separable_conv_2_bn_normal_right2_1_1/batchnorm/sub", "shape": [44], "dtype": "float32"}, {"name": "StatefulPartitionedCall/sequential_2_1/nasnet_mobile_1/adjust_conv_projection_1_1/convolution/merged_input", "shape": [1, 1, 88, 44], "dtype": "float32"}, {"name": "StatefulPartitionedCall/sequential_2_1/nasnet_mobile_1/adjust_bn_1_1/batchnorm/sub", "shape": [44], "dtype": "float32"}, {"name": "StatefulPartitionedCall/sequential_2_1/nasnet_mobile_1/separable_conv_1_normal_left5_1_1/separable_conv2d/ReadVariableOp", "shape": [3, 3, 44, 1], "dtype": "float32"}, {"name": "StatefulPartitionedCall/sequential_2_1/nasnet_mobile_1/separable_conv_1_normal_left5_1_1/separable_conv2d/merged_input", "shape": [1, 1, 44, 44], "dtype": "float32"}, {"name": "StatefulPartitionedCall/sequential_2_1/nasnet_mobile_1/separable_conv_1_bn_normal_left5_1_1/batchnorm/sub", "shape": [44], "dtype": "float32"}, {"name": "StatefulPartitionedCall/sequential_2_1/nasnet_mobile_1/separable_conv_2_normal_left5_1_1/separable_conv2d/ReadVariableOp", "shape": [3, 3, 44, 1], "dtype": "float32"}, {"name": "StatefulPartitionedCall/sequential_2_1/nasnet_mobile_1/separable_conv_2_normal_left5_1_1/separable_conv2d/merged_input", "shape": [1, 1, 44, 44], "dtype": "float32"}, {"name": "StatefulPartitionedCall/sequential_2_1/nasnet_mobile_1/separable_conv_2_bn_normal_left5_1_1/batchnorm/sub", "shape": [44], "dtype": "float32"}, {"name": "StatefulPartitionedCall/sequential_2_1/nasnet_mobile_1/separable_conv_1_normal_left1_0_1/separable_conv2d/ReadVariableOp", "shape": [5, 5, 44, 1], "dtype": "float32"}, {"name": "StatefulPartitionedCall/sequential_2_1/nasnet_mobile_1/separable_conv_1_normal_left1_0_1/separable_conv2d/merged_input", "shape": [1, 1, 44, 44], "dtype": "float32"}, {"name": "StatefulPartitionedCall/sequential_2_1/nasnet_mobile_1/separable_conv_1_bn_normal_left1_0_1/batchnorm/sub", "shape": [44], "dtype": "float32"}, {"name": "StatefulPartitionedCall/sequential_2_1/nasnet_mobile_1/separable_conv_2_normal_left1_0_1/separable_conv2d/ReadVariableOp", "shape": [5, 5, 44, 1], "dtype": "float32"}, {"name": "StatefulPartitionedCall/sequential_2_1/nasnet_mobile_1/separable_conv_2_normal_left1_0_1/separable_conv2d/merged_input", "shape": [1, 1, 44, 44], "dtype": "float32"}, {"name": "StatefulPartitionedCall/sequential_2_1/nasnet_mobile_1/separable_conv_2_bn_normal_left1_0_1/batchnorm/sub", "shape": [44], "dtype": "float32"}, {"name": "StatefulPartitionedCall/sequential_2_1/nasnet_mobile_1/separable_conv_1_normal_right1_0_1/separable_conv2d/ReadVariableOp", "shape": [3, 3, 44, 1], "dtype": "float32"}, {"name": "StatefulPartitionedCall/sequential_2_1/nasnet_mobile_1/separable_conv_1_normal_right1_0_1/separable_conv2d/merged_input", "shape": [1, 1, 44, 44], "dtype": "float32"}, {"name": "StatefulPartitionedCall/sequential_2_1/nasnet_mobile_1/separable_conv_1_bn_normal_right1_0_1/batchnorm/sub", "shape": [44], "dtype": "float32"}, {"name": "StatefulPartitionedCall/sequential_2_1/nasnet_mobile_1/separable_conv_2_normal_right1_0_1/separable_conv2d/ReadVariableOp", "shape": [3, 3, 44, 1], "dtype": "float32"}, {"name": "StatefulPartitionedCall/sequential_2_1/nasnet_mobile_1/separable_conv_2_normal_right1_0_1/separable_conv2d/merged_input", "shape": [1, 1, 44, 44], "dtype": "float32"}, {"name": "StatefulPartitionedCall/sequential_2_1/nasnet_mobile_1/separable_conv_2_bn_normal_right1_0_1/batchnorm/sub", "shape": [44], "dtype": "float32"}, {"name": "StatefulPartitionedCall/sequential_2_1/nasnet_mobile_1/separable_conv_1_normal_left2_0_1/separable_conv2d/ReadVariableOp", "shape": [5, 5, 44, 1], "dtype": "float32"}, {"name": "StatefulPartitionedCall/sequential_2_1/nasnet_mobile_1/separable_conv_1_normal_left2_0_1/separable_conv2d/merged_input", "shape": [1, 1, 44, 44], "dtype": "float32"}, {"name": "StatefulPartitionedCall/sequential_2_1/nasnet_mobile_1/separable_conv_1_bn_normal_left2_0_1/batchnorm/sub", "shape": [44], "dtype": "float32"}, {"name": "StatefulPartitionedCall/sequential_2_1/nasnet_mobile_1/separable_conv_2_normal_left2_0_1/separable_conv2d/ReadVariableOp", "shape": [5, 5, 44, 1], "dtype": "float32"}, {"name": "StatefulPartitionedCall/sequential_2_1/nasnet_mobile_1/separable_conv_2_normal_left2_0_1/separable_conv2d/merged_input", "shape": [1, 1, 44, 44], "dtype": "float32"}, {"name": "StatefulPartitionedCall/sequential_2_1/nasnet_mobile_1/separable_conv_2_bn_normal_left2_0_1/batchnorm/sub", "shape": [44], "dtype": "float32"}, {"name": "StatefulPartitionedCall/sequential_2_1/nasnet_mobile_1/separable_conv_1_normal_right2_0_1/separable_conv2d/ReadVariableOp", "shape": [3, 3, 44, 1], "dtype": "float32"}, {"name": "StatefulPartitionedCall/sequential_2_1/nasnet_mobile_1/separable_conv_1_normal_right2_0_1/separable_conv2d/merged_input", "shape": [1, 1, 44, 44], "dtype": "float32"}, {"name": "StatefulPartitionedCall/sequential_2_1/nasnet_mobile_1/separable_conv_1_bn_normal_right2_0_1/batchnorm/sub", "shape": [44], "dtype": "float32"}, {"name": "StatefulPartitionedCall/sequential_2_1/nasnet_mobile_1/separable_conv_2_normal_right2_0_1/separable_conv2d/ReadVariableOp", "shape": [3, 3, 44, 1], "dtype": "float32"}, {"name": "StatefulPartitionedCall/sequential_2_1/nasnet_mobile_1/separable_conv_2_normal_right2_0_1/separable_conv2d/merged_input", "shape": [1, 1, 44, 44], "dtype": "float32"}, {"name": "StatefulPartitionedCall/sequential_2_1/nasnet_mobile_1/separable_conv_2_bn_normal_right2_0_1/batchnorm/sub", "shape": [44], "dtype": "float32"}, {"name": "StatefulPartitionedCall/sequential_2_1/nasnet_mobile_1/adjust_conv_1_0_1/convolution/ReadVariableOp", "shape": [1, 1, 44, 22], "dtype": "float32"}, {"name": "StatefulPartitionedCall/sequential_2_1/nasnet_mobile_1/zero_padding2d_1_2/Const", "shape": [4, 2], "dtype": "int32"}, {"name": "StatefulPartitionedCall/sequential_2_1/nasnet_mobile_1/cropping2d_1_2/strided_slice/stack", "shape": [4], "dtype": "int32"}, {"name": "StatefulPartitionedCall/sequential_2_1/nasnet_mobile_1/cropping2d_1_2/strided_slice/stack_1", "shape": [4], "dtype": "int32"}, {"name": "StatefulPartitionedCall/sequential_2_1/nasnet_mobile_1/cropping2d_1_2/strided_slice/stack_2", "shape": [4], "dtype": "int32"}, {"name": "StatefulPartitionedCall/sequential_2_1/nasnet_mobile_1/adjust_conv_2_0_1/convolution/ReadVariableOp", "shape": [1, 1, 44, 22], "dtype": "float32"}, {"name": "StatefulPartitionedCall/sequential_2_1/nasnet_mobile_1/concatenate_1_2/concat/axis", "shape": [], "dtype": "int32"}, {"name": "StatefulPartitionedCall/sequential_2_1/nasnet_mobile_1/adjust_bn_0_1/batchnorm/mul", "shape": [44], "dtype": "float32"}, {"name": "StatefulPartitionedCall/sequential_2_1/nasnet_mobile_1/adjust_bn_0_1/batchnorm/sub", "shape": [44], "dtype": "float32"}, {"name": "StatefulPartitionedCall/sequential_2_1/nasnet_mobile_1/separable_conv_1_normal_left5_0_1/separable_conv2d/ReadVariableOp", "shape": [3, 3, 44, 1], "dtype": "float32"}, {"name": "StatefulPartitionedCall/sequential_2_1/nasnet_mobile_1/separable_conv_1_normal_left5_0_1/separable_conv2d/merged_input", "shape": [1, 1, 44, 44], "dtype": "float32"}, {"name": "StatefulPartitionedCall/sequential_2_1/nasnet_mobile_1/separable_conv_1_bn_normal_left5_0_1/batchnorm/sub", "shape": [44], "dtype": "float32"}, {"name": "StatefulPartitionedCall/sequential_2_1/nasnet_mobile_1/separable_conv_2_normal_left5_0_1/separable_conv2d/ReadVariableOp", "shape": [3, 3, 44, 1], "dtype": "float32"}, {"name": "StatefulPartitionedCall/sequential_2_1/nasnet_mobile_1/separable_conv_2_normal_left5_0_1/separable_conv2d/merged_input", "shape": [1, 1, 44, 44], "dtype": "float32"}, {"name": "StatefulPartitionedCall/sequential_2_1/nasnet_mobile_1/separable_conv_2_bn_normal_left5_0_1/batchnorm/sub", "shape": [44], "dtype": "float32"}, {"name": "StatefulPartitionedCall/sequential_2_1/nasnet_mobile_1/separable_conv_1_pad_reduction_right3_stem_2_1/Const", "shape": [4, 2], "dtype": "int32"}, {"name": "StatefulPartitionedCall/sequential_2_1/nasnet_mobile_1/separable_conv_1_reduction_right3_stem_2_1/separable_conv2d/ReadVariableOp", "shape": [5, 5, 22, 1], "dtype": "float32"}, {"name": "StatefulPartitionedCall/sequential_2_1/nasnet_mobile_1/separable_conv_1_reduction_right3_stem_2_1/separable_conv2d/merged_input", "shape": [1, 1, 22, 22], "dtype": "float32"}, {"name": "StatefulPartitionedCall/sequential_2_1/nasnet_mobile_1/separable_conv_1_bn_reduction_right3_stem_2_1/batchnorm/sub", "shape": [22], "dtype": "float32"}, {"name": "StatefulPartitionedCall/sequential_2_1/nasnet_mobile_1/separable_conv_2_reduction_right3_stem_2_1/separable_conv2d/ReadVariableOp", "shape": [5, 5, 22, 1], "dtype": "float32"}, {"name": "StatefulPartitionedCall/sequential_2_1/nasnet_mobile_1/separable_conv_2_reduction_right3_stem_2_1/separable_conv2d/merged_input", "shape": [1, 1, 22, 22], "dtype": "float32"}, {"name": "StatefulPartitionedCall/sequential_2_1/nasnet_mobile_1/separable_conv_2_bn_reduction_right3_stem_2_1/batchnorm/sub", "shape": [22], "dtype": "float32"}, {"name": "StatefulPartitionedCall/sequential_2_1/nasnet_mobile_1/separable_conv_1_pad_reduction_right2_stem_2_1/Const", "shape": [4, 2], "dtype": "int32"}, {"name": "StatefulPartitionedCall/sequential_2_1/nasnet_mobile_1/separable_conv_1_reduction_right2_stem_2_1/separable_conv2d/ReadVariableOp", "shape": [7, 7, 22, 1], "dtype": "float32"}, {"name": "StatefulPartitionedCall/sequential_2_1/nasnet_mobile_1/separable_conv_1_reduction_right2_stem_2_1/separable_conv2d/merged_input", "shape": [1, 1, 22, 22], "dtype": "float32"}, {"name": "StatefulPartitionedCall/sequential_2_1/nasnet_mobile_1/separable_conv_1_bn_reduction_right2_stem_2_1/batchnorm/sub", "shape": [22], "dtype": "float32"}, {"name": "StatefulPartitionedCall/sequential_2_1/nasnet_mobile_1/separable_conv_2_reduction_right2_stem_2_1/separable_conv2d/ReadVariableOp", "shape": [7, 7, 22, 1], "dtype": "float32"}, {"name": "StatefulPartitionedCall/sequential_2_1/nasnet_mobile_1/separable_conv_2_reduction_right2_stem_2_1/separable_conv2d/merged_input", "shape": [1, 1, 22, 22], "dtype": "float32"}, {"name": "StatefulPartitionedCall/sequential_2_1/nasnet_mobile_1/separable_conv_2_bn_reduction_right2_stem_2_1/batchnorm/sub", "shape": [22], "dtype": "float32"}, {"name": "StatefulPartitionedCall/sequential_2_1/nasnet_mobile_1/separable_conv_1_pad_reduction_left1_stem_2_1/Const", "shape": [4, 2], "dtype": "int32"}, {"name": "StatefulPartitionedCall/sequential_2_1/nasnet_mobile_1/separable_conv_1_reduction_left1_stem_2_1/separable_conv2d/ReadVariableOp", "shape": [5, 5, 22, 1], "dtype": "float32"}, {"name": "StatefulPartitionedCall/sequential_2_1/nasnet_mobile_1/separable_conv_1_reduction_left1_stem_2_1/separable_conv2d/merged_input", "shape": [1, 1, 22, 22], "dtype": "float32"}, {"name": "StatefulPartitionedCall/sequential_2_1/nasnet_mobile_1/separable_conv_1_bn_reduction_left1_stem_2_1/batchnorm/sub", "shape": [22], "dtype": "float32"}, {"name": "StatefulPartitionedCall/sequential_2_1/nasnet_mobile_1/separable_conv_2_reduction_left1_stem_2_1/separable_conv2d/ReadVariableOp", "shape": [5, 5, 22, 1], "dtype": "float32"}, {"name": "StatefulPartitionedCall/sequential_2_1/nasnet_mobile_1/separable_conv_2_reduction_left1_stem_2_1/separable_conv2d/merged_input", "shape": [1, 1, 22, 22], "dtype": "float32"}, {"name": "StatefulPartitionedCall/sequential_2_1/nasnet_mobile_1/separable_conv_2_bn_reduction_left1_stem_2_1/batchnorm/sub", "shape": [22], "dtype": "float32"}, {"name": "StatefulPartitionedCall/sequential_2_1/nasnet_mobile_1/adjust_conv_1_stem_2_1/convolution/ReadVariableOp", "shape": [1, 1, 32, 11], "dtype": "float32"}, {"name": "StatefulPartitionedCall/sequential_2_1/nasnet_mobile_1/zero_padding2d_1/Const", "shape": [4, 2], "dtype": "int32"}, {"name": "StatefulPartitionedCall/sequential_2_1/nasnet_mobile_1/cropping2d_1/strided_slice/stack", "shape": [4], "dtype": "int32"}, {"name": "StatefulPartitionedCall/sequential_2_1/nasnet_mobile_1/cropping2d_1/strided_slice/stack_1", "shape": [4], "dtype": "int32"}, {"name": "StatefulPartitionedCall/sequential_2_1/nasnet_mobile_1/cropping2d_1/strided_slice/stack_2", "shape": [4], "dtype": "int32"}, {"name": "StatefulPartitionedCall/sequential_2_1/nasnet_mobile_1/adjust_conv_2_stem_2_1/convolution/ReadVariableOp", "shape": [1, 1, 32, 11], "dtype": "float32"}, {"name": "StatefulPartitionedCall/sequential_2_1/nasnet_mobile_1/concatenate_1/concat/axis", "shape": [], "dtype": "int32"}, {"name": "StatefulPartitionedCall/sequential_2_1/nasnet_mobile_1/adjust_bn_stem_2_1/batchnorm/mul", "shape": [22], "dtype": "float32"}, {"name": "StatefulPartitionedCall/sequential_2_1/nasnet_mobile_1/adjust_bn_stem_2_1/batchnorm/sub", "shape": [22], "dtype": "float32"}, {"name": "StatefulPartitionedCall/sequential_2_1/nasnet_mobile_1/separable_conv_1_pad_reduction_right1_stem_2_1/Const", "shape": [4, 2], "dtype": "int32"}, {"name": "StatefulPartitionedCall/sequential_2_1/nasnet_mobile_1/separable_conv_1_reduction_right1_stem_2_1/separable_conv2d/ReadVariableOp", "shape": [7, 7, 22, 1], "dtype": "float32"}, {"name": "StatefulPartitionedCall/sequential_2_1/nasnet_mobile_1/separable_conv_1_reduction_right1_stem_2_1/separable_conv2d/merged_input", "shape": [1, 1, 22, 22], "dtype": "float32"}, {"name": "StatefulPartitionedCall/sequential_2_1/nasnet_mobile_1/separable_conv_1_bn_reduction_right1_stem_2_1/batchnorm/sub", "shape": [22], "dtype": "float32"}, {"name": "StatefulPartitionedCall/sequential_2_1/nasnet_mobile_1/separable_conv_2_reduction_right1_stem_2_1/separable_conv2d/ReadVariableOp", "shape": [7, 7, 22, 1], "dtype": "float32"}, {"name": "StatefulPartitionedCall/sequential_2_1/nasnet_mobile_1/separable_conv_2_reduction_right1_stem_2_1/separable_conv2d/merged_input", "shape": [1, 1, 22, 22], "dtype": "float32"}, {"name": "StatefulPartitionedCall/sequential_2_1/nasnet_mobile_1/separable_conv_2_bn_reduction_right1_stem_2_1/batchnorm/sub", "shape": [22], "dtype": "float32"}, {"name": "StatefulPartitionedCall/sequential_2_1/nasnet_mobile_1/separable_conv_1_reduction_left4_stem_2_1/separable_conv2d/ReadVariableOp", "shape": [3, 3, 22, 1], "dtype": "float32"}, {"name": "StatefulPartitionedCall/sequential_2_1/nasnet_mobile_1/separable_conv_1_reduction_left4_stem_2_1/separable_conv2d/merged_input", "shape": [1, 1, 22, 22], "dtype": "float32"}, {"name": "StatefulPartitionedCall/sequential_2_1/nasnet_mobile_1/separable_conv_1_bn_reduction_left4_stem_2_1/batchnorm/sub", "shape": [22], "dtype": "float32"}, {"name": "StatefulPartitionedCall/sequential_2_1/nasnet_mobile_1/separable_conv_2_reduction_left4_stem_2_1/separable_conv2d/ReadVariableOp", "shape": [3, 3, 22, 1], "dtype": "float32"}, {"name": "StatefulPartitionedCall/sequential_2_1/nasnet_mobile_1/separable_conv_2_reduction_left4_stem_2_1/separable_conv2d/merged_input", "shape": [1, 1, 22, 22], "dtype": "float32"}, {"name": "StatefulPartitionedCall/sequential_2_1/nasnet_mobile_1/separable_conv_2_bn_reduction_left4_stem_2_1/batchnorm/sub", "shape": [22], "dtype": "float32"}, {"name": "StatefulPartitionedCall/sequential_2_1/nasnet_mobile_1/separable_conv_1_pad_reduction_right3_stem_1_1/Const", "shape": [4, 2], "dtype": "int32"}, {"name": "StatefulPartitionedCall/sequential_2_1/nasnet_mobile_1/separable_conv_1_reduction_right3_stem_1_1/separable_conv2d/ReadVariableOp", "shape": [5, 5, 32, 1], "dtype": "float32"}, {"name": "StatefulPartitionedCall/sequential_2_1/nasnet_mobile_1/separable_conv_1_reduction_right3_stem_1_1/separable_conv2d/merged_input", "shape": [1, 1, 32, 11], "dtype": "float32"}, {"name": "StatefulPartitionedCall/sequential_2_1/nasnet_mobile_1/separable_conv_1_bn_reduction_right3_stem_1_1/batchnorm/sub", "shape": [11], "dtype": "float32"}, {"name": "StatefulPartitionedCall/sequential_2_1/nasnet_mobile_1/separable_conv_2_reduction_right3_stem_1_1/separable_conv2d/ReadVariableOp", "shape": [5, 5, 11, 1], "dtype": "float32"}, {"name": "StatefulPartitionedCall/sequential_2_1/nasnet_mobile_1/separable_conv_2_reduction_right3_stem_1_1/separable_conv2d/merged_input", "shape": [1, 1, 11, 11], "dtype": "float32"}, {"name": "StatefulPartitionedCall/sequential_2_1/nasnet_mobile_1/separable_conv_2_bn_reduction_right3_stem_1_1/batchnorm/sub", "shape": [11], "dtype": "float32"}, {"name": "StatefulPartitionedCall/sequential_2_1/nasnet_mobile_1/separable_conv_1_pad_reduction_right2_stem_1_1/Const", "shape": [4, 2], "dtype": "int32"}, {"name": "StatefulPartitionedCall/sequential_2_1/nasnet_mobile_1/separable_conv_1_reduction_right2_stem_1_1/separable_conv2d/ReadVariableOp", "shape": [7, 7, 32, 1], "dtype": "float32"}, {"name": "StatefulPartitionedCall/sequential_2_1/nasnet_mobile_1/separable_conv_1_reduction_right2_stem_1_1/separable_conv2d/merged_input", "shape": [1, 1, 32, 11], "dtype": "float32"}, {"name": "StatefulPartitionedCall/sequential_2_1/nasnet_mobile_1/separable_conv_1_bn_reduction_right2_stem_1_1/batchnorm/sub", "shape": [11], "dtype": "float32"}, {"name": "StatefulPartitionedCall/sequential_2_1/nasnet_mobile_1/separable_conv_2_reduction_right2_stem_1_1/separable_conv2d/ReadVariableOp", "shape": [7, 7, 11, 1], "dtype": "float32"}, {"name": "StatefulPartitionedCall/sequential_2_1/nasnet_mobile_1/separable_conv_2_reduction_right2_stem_1_1/separable_conv2d/merged_input", "shape": [1, 1, 11, 11], "dtype": "float32"}, {"name": "StatefulPartitionedCall/sequential_2_1/nasnet_mobile_1/separable_conv_2_bn_reduction_right2_stem_1_1/batchnorm/sub", "shape": [11], "dtype": "float32"}, {"name": "StatefulPartitionedCall/sequential_2_1/nasnet_mobile_1/separable_conv_1_pad_reduction_left1_stem_1_1/Const", "shape": [4, 2], "dtype": "int32"}, {"name": "StatefulPartitionedCall/sequential_2_1/nasnet_mobile_1/separable_conv_1_reduction_left1_stem_1_1/separable_conv2d/ReadVariableOp", "shape": [5, 5, 11, 1], "dtype": "float32"}, {"name": "StatefulPartitionedCall/sequential_2_1/nasnet_mobile_1/separable_conv_1_reduction_left1_stem_1_1/separable_conv2d/merged_input", "shape": [1, 1, 11, 11], "dtype": "float32"}, {"name": "StatefulPartitionedCall/sequential_2_1/nasnet_mobile_1/separable_conv_1_bn_reduction_left1_stem_1_1/batchnorm/sub", "shape": [11], "dtype": "float32"}, {"name": "StatefulPartitionedCall/sequential_2_1/nasnet_mobile_1/separable_conv_2_reduction_left1_stem_1_1/separable_conv2d/ReadVariableOp", "shape": [5, 5, 11, 1], "dtype": "float32"}, {"name": "StatefulPartitionedCall/sequential_2_1/nasnet_mobile_1/separable_conv_2_reduction_left1_stem_1_1/separable_conv2d/merged_input", "shape": [1, 1, 11, 11], "dtype": "float32"}, {"name": "StatefulPartitionedCall/sequential_2_1/nasnet_mobile_1/separable_conv_2_bn_reduction_left1_stem_1_1/batchnorm/sub", "shape": [11], "dtype": "float32"}, {"name": "StatefulPartitionedCall/sequential_2_1/nasnet_mobile_1/separable_conv_1_pad_reduction_right1_stem_1_1/Const", "shape": [4, 2], "dtype": "int32"}, {"name": "StatefulPartitionedCall/sequential_2_1/nasnet_mobile_1/separable_conv_1_reduction_right1_stem_1_1/separable_conv2d/ReadVariableOp", "shape": [7, 7, 32, 1], "dtype": "float32"}, {"name": "StatefulPartitionedCall/sequential_2_1/nasnet_mobile_1/separable_conv_1_reduction_right1_stem_1_1/separable_conv2d/merged_input", "shape": [1, 1, 32, 11], "dtype": "float32"}, {"name": "StatefulPartitionedCall/sequential_2_1/nasnet_mobile_1/separable_conv_1_bn_reduction_right1_stem_1_1/batchnorm/sub", "shape": [11], "dtype": "float32"}, {"name": "StatefulPartitionedCall/sequential_2_1/nasnet_mobile_1/separable_conv_2_reduction_right1_stem_1_1/separable_conv2d/ReadVariableOp", "shape": [7, 7, 11, 1], "dtype": "float32"}, {"name": "StatefulPartitionedCall/sequential_2_1/nasnet_mobile_1/separable_conv_2_reduction_right1_stem_1_1/separable_conv2d/merged_input", "shape": [1, 1, 11, 11], "dtype": "float32"}, {"name": "StatefulPartitionedCall/sequential_2_1/nasnet_mobile_1/separable_conv_2_bn_reduction_right1_stem_1_1/batchnorm/sub", "shape": [11], "dtype": "float32"}, {"name": "StatefulPartitionedCall/sequential_2_1/nasnet_mobile_1/separable_conv_1_reduction_left4_stem_1_1/separable_conv2d/ReadVariableOp", "shape": [3, 3, 11, 1], "dtype": "float32"}, {"name": "StatefulPartitionedCall/sequential_2_1/nasnet_mobile_1/separable_conv_1_reduction_left4_stem_1_1/separable_conv2d/merged_input", "shape": [1, 1, 11, 11], "dtype": "float32"}, {"name": "StatefulPartitionedCall/sequential_2_1/nasnet_mobile_1/separable_conv_1_bn_reduction_left4_stem_1_1/batchnorm/sub", "shape": [11], "dtype": "float32"}, {"name": "StatefulPartitionedCall/sequential_2_1/nasnet_mobile_1/separable_conv_2_reduction_left4_stem_1_1/separable_conv2d/ReadVariableOp", "shape": [3, 3, 11, 1], "dtype": "float32"}, {"name": "StatefulPartitionedCall/sequential_2_1/nasnet_mobile_1/separable_conv_2_reduction_left4_stem_1_1/separable_conv2d/merged_input", "shape": [1, 1, 11, 11], "dtype": "float32"}, {"name": "StatefulPartitionedCall/sequential_2_1/nasnet_mobile_1/separable_conv_2_bn_reduction_left4_stem_1_1/batchnorm/sub", "shape": [11], "dtype": "float32"}, {"name": "StatefulPartitionedCall/sequential_2_1/nasnet_mobile_1/stem_conv1_1/convolution/merged_input", "shape": [3, 3, 3, 32], "dtype": "float32"}, {"name": "StatefulPartitionedCall/sequential_2_1/nasnet_mobile_1/stem_bn1_1/batchnorm/sub", "shape": [32], "dtype": "float32"}, {"name": "StatefulPartitionedCall/sequential_2_1/nasnet_mobile_1/reduction_conv_1_stem_1_1/convolution/merged_input", "shape": [1, 1, 32, 11], "dtype": "float32"}, {"name": "StatefulPartitionedCall/sequential_2_1/nasnet_mobile_1/reduction_bn_1_stem_1_1/batchnorm/sub", "shape": [11], "dtype": "float32"}, {"name": "StatefulPartitionedCall/sequential_2_1/nasnet_mobile_1/reduction_pad_1_stem_1_1/Const", "shape": [4, 2], "dtype": "int32"}, {"name": "StatefulPartitionedCall/sequential_2_1/nasnet_mobile_1/reduction_concat_stem_1_1/concat/axis", "shape": [], "dtype": "int32"}, {"name": "StatefulPartitionedCall/sequential_2_1/nasnet_mobile_1/reduction_conv_1_stem_2_1/convolution/merged_input", "shape": [1, 1, 44, 22], "dtype": "float32"}, {"name": "StatefulPartitionedCall/sequential_2_1/nasnet_mobile_1/reduction_bn_1_stem_2_1/batchnorm/sub", "shape": [22], "dtype": "float32"}, {"name": "StatefulPartitionedCall/sequential_2_1/nasnet_mobile_1/reduction_pad_1_stem_2_1/Const", "shape": [4, 2], "dtype": "int32"}, {"name": "StatefulPartitionedCall/sequential_2_1/nasnet_mobile_1/reduction_concat_stem_2_1/concat/axis", "shape": [], "dtype": "int32"}, {"name": "StatefulPartitionedCall/sequential_2_1/nasnet_mobile_1/normal_conv_1_0_1/convolution/merged_input", "shape": [1, 1, 88, 44], "dtype": "float32"}, {"name": "StatefulPartitionedCall/sequential_2_1/nasnet_mobile_1/normal_bn_1_0_1/batchnorm/sub", "shape": [44], "dtype": "float32"}, {"name": "StatefulPartitionedCall/sequential_2_1/nasnet_mobile_1/normal_concat_0_1/concat/axis", "shape": [], "dtype": "int32"}, {"name": "StatefulPartitionedCall/sequential_2_1/nasnet_mobile_1/normal_conv_1_1_1/convolution/merged_input", "shape": [1, 1, 264, 44], "dtype": "float32"}, {"name": "StatefulPartitionedCall/sequential_2_1/nasnet_mobile_1/normal_bn_1_1_1/batchnorm/sub", "shape": [44], "dtype": "float32"}, {"name": "StatefulPartitionedCall/sequential_2_1/nasnet_mobile_1/normal_concat_1_1/concat/axis", "shape": [], "dtype": "int32"}, {"name": "StatefulPartitionedCall/sequential_2_1/nasnet_mobile_1/normal_conv_1_2_1/convolution/merged_input", "shape": [1, 1, 264, 44], "dtype": "float32"}, {"name": "StatefulPartitionedCall/sequential_2_1/nasnet_mobile_1/normal_bn_1_2_1/batchnorm/sub", "shape": [44], "dtype": "float32"}, {"name": "StatefulPartitionedCall/sequential_2_1/nasnet_mobile_1/normal_concat_2_1/concat/axis", "shape": [], "dtype": "int32"}, {"name": "StatefulPartitionedCall/sequential_2_1/nasnet_mobile_1/normal_conv_1_3_1/convolution/merged_input", "shape": [1, 1, 264, 44], "dtype": "float32"}, {"name": "StatefulPartitionedCall/sequential_2_1/nasnet_mobile_1/normal_bn_1_3_1/batchnorm/sub", "shape": [44], "dtype": "float32"}, {"name": "StatefulPartitionedCall/sequential_2_1/nasnet_mobile_1/normal_concat_3_1/concat/axis", "shape": [], "dtype": "int32"}, {"name": "StatefulPartitionedCall/sequential_2_1/nasnet_mobile_1/reduction_conv_1_reduce_4_1/convolution/merged_input", "shape": [1, 1, 264, 88], "dtype": "float32"}, {"name": "StatefulPartitionedCall/sequential_2_1/nasnet_mobile_1/reduction_bn_1_reduce_4_1/batchnorm/sub", "shape": [88], "dtype": "float32"}, {"name": "StatefulPartitionedCall/sequential_2_1/nasnet_mobile_1/reduction_pad_1_reduce_4_1/Const", "shape": [4, 2], "dtype": "int32"}, {"name": "StatefulPartitionedCall/sequential_2_1/nasnet_mobile_1/reduction_concat_reduce_4_1/concat/axis", "shape": [], "dtype": "int32"}, {"name": "StatefulPartitionedCall/sequential_2_1/nasnet_mobile_1/normal_conv_1_5_1/convolution/merged_input", "shape": [1, 1, 352, 88], "dtype": "float32"}, {"name": "StatefulPartitionedCall/sequential_2_1/nasnet_mobile_1/normal_bn_1_5_1/batchnorm/sub", "shape": [88], "dtype": "float32"}, {"name": "StatefulPartitionedCall/sequential_2_1/nasnet_mobile_1/normal_concat_5_1/concat/axis", "shape": [], "dtype": "int32"}, {"name": "StatefulPartitionedCall/sequential_2_1/nasnet_mobile_1/normal_conv_1_6_1/convolution/merged_input", "shape": [1, 1, 528, 88], "dtype": "float32"}, {"name": "StatefulPartitionedCall/sequential_2_1/nasnet_mobile_1/normal_bn_1_6_1/batchnorm/sub", "shape": [88], "dtype": "float32"}, {"name": "StatefulPartitionedCall/sequential_2_1/nasnet_mobile_1/normal_concat_6_1/concat/axis", "shape": [], "dtype": "int32"}, {"name": "StatefulPartitionedCall/sequential_2_1/nasnet_mobile_1/normal_conv_1_7_1/convolution/merged_input", "shape": [1, 1, 528, 88], "dtype": "float32"}, {"name": "StatefulPartitionedCall/sequential_2_1/nasnet_mobile_1/normal_bn_1_7_1/batchnorm/sub", "shape": [88], "dtype": "float32"}, {"name": "StatefulPartitionedCall/sequential_2_1/nasnet_mobile_1/normal_concat_7_1/concat/axis", "shape": [], "dtype": "int32"}, {"name": "StatefulPartitionedCall/sequential_2_1/nasnet_mobile_1/normal_conv_1_8_1/convolution/merged_input", "shape": [1, 1, 528, 88], "dtype": "float32"}, {"name": "StatefulPartitionedCall/sequential_2_1/nasnet_mobile_1/normal_bn_1_8_1/batchnorm/sub", "shape": [88], "dtype": "float32"}, {"name": "StatefulPartitionedCall/sequential_2_1/nasnet_mobile_1/normal_concat_8_1/concat/axis", "shape": [], "dtype": "int32"}, {"name": "StatefulPartitionedCall/sequential_2_1/nasnet_mobile_1/reduction_conv_1_reduce_8_1/convolution/merged_input", "shape": [1, 1, 528, 176], "dtype": "float32"}, {"name": "StatefulPartitionedCall/sequential_2_1/nasnet_mobile_1/reduction_bn_1_reduce_8_1/batchnorm/sub", "shape": [176], "dtype": "float32"}, {"name": "StatefulPartitionedCall/sequential_2_1/nasnet_mobile_1/reduction_pad_1_reduce_8_1/Const", "shape": [4, 2], "dtype": "int32"}, {"name": "StatefulPartitionedCall/sequential_2_1/nasnet_mobile_1/reduction_concat_reduce_8_1/concat/axis", "shape": [], "dtype": "int32"}, {"name": "StatefulPartitionedCall/sequential_2_1/nasnet_mobile_1/normal_conv_1_9_1/convolution/merged_input", "shape": [1, 1, 704, 176], "dtype": "float32"}, {"name": "StatefulPartitionedCall/sequential_2_1/nasnet_mobile_1/normal_bn_1_9_1/batchnorm/sub", "shape": [176], "dtype": "float32"}, {"name": "StatefulPartitionedCall/sequential_2_1/nasnet_mobile_1/normal_concat_9_1/concat/axis", "shape": [], "dtype": "int32"}, {"name": "StatefulPartitionedCall/sequential_2_1/nasnet_mobile_1/normal_conv_1_10_1/convolution/merged_input", "shape": [1, 1, 1056, 176], "dtype": "float32"}, {"name": "StatefulPartitionedCall/sequential_2_1/nasnet_mobile_1/normal_bn_1_10_1/batchnorm/sub", "shape": [176], "dtype": "float32"}, {"name": "StatefulPartitionedCall/sequential_2_1/nasnet_mobile_1/normal_concat_10_1/concat/axis", "shape": [], "dtype": "int32"}, {"name": "StatefulPartitionedCall/sequential_2_1/nasnet_mobile_1/normal_conv_1_11_1/convolution/merged_input", "shape": [1, 1, 1056, 176], "dtype": "float32"}, {"name": "StatefulPartitionedCall/sequential_2_1/nasnet_mobile_1/normal_bn_1_11_1/batchnorm/sub", "shape": [176], "dtype": "float32"}, {"name": "StatefulPartitionedCall/sequential_2_1/nasnet_mobile_1/normal_concat_11_1/concat/axis", "shape": [], "dtype": "int32"}, {"name": "StatefulPartitionedCall/sequential_2_1/nasnet_mobile_1/normal_conv_1_12_1/convolution/merged_input", "shape": [1, 1, 1056, 176], "dtype": "float32"}, {"name": "StatefulPartitionedCall/sequential_2_1/nasnet_mobile_1/normal_bn_1_12_1/batchnorm/sub", "shape": [176], "dtype": "float32"}, {"name": "StatefulPartitionedCall/sequential_2_1/nasnet_mobile_1/normal_concat_12_1/concat/axis", "shape": [], "dtype": "int32"}, {"name": "StatefulPartitionedCall/sequential_2_1/conv2d_3_1/convolution/ReadVariableOp", "shape": [3, 3, 1056, 32], "dtype": "float32"}, {"name": "StatefulPartitionedCall/sequential_2_1/conv2d_3_1/Squeeze", "shape": [32], "dtype": "float32"}, {"name": "StatefulPartitionedCall/sequential_2_1/flatten_3_1/Reshape/shape", "shape": [2], "dtype": "int32"}, {"name": "StatefulPartitionedCall/sequential_2_1/dense_2_1/Cast/ReadVariableOp", "shape": [128, 2], "dtype": "float32"}, {"name": "StatefulPartitionedCall/sequential_2_1/dense_2_1/BiasAdd/ReadVariableOp", "shape": [2], "dtype": "float32"}]}]}